NS_model_train.pt (torch, 18153 bytes, 18 tensors)

base.0linear.weight f4 [20, 3]
0	0x3df06ece	0.11739884
1	0xbdd62a80	-0.10457325
2	0x3d523704	0.051322
3	0xbe9afc15	-0.30270448
4	0xbf2e0be9	-0.67986923
5	0x3d9a145d	0.07523415
6	0xbd929c4a	-0.07158716
7	0xbea58134	-0.32325137
8	0xbe3663f0	-0.1781156
9	0xbe96dc81	-0.29465106
10	0xbd8e3ad1	-0.06944812
11	0x3e989bec	0.2980646
12	0xbd6b84d5	-0.057499725
13	0xbe833847	-0.25628874
14	0x3d6c6738	0.057715625
15	0x3e5342aa	0.20630899
16	0xbe85aed6	-0.26109952
17	0xbe3694d5	-0.17830212
18	0x3f0824d0	0.5318117
19	0xbc1ae1fa	-0.009453291
20	0xbef6ae8b	-0.4818004
21	0xbeef5a0e	-0.46748394
22	0x3e97580a	0.29559356
23	0x3f0996fa	0.53745997
24	0xbe82d72d	-0.2555479
25	0x3c510ca5	0.012759362
26	0x3e7cdd28	0.2469374
27	0xbef07502	-0.4696427
28	0xbec8febd	-0.3925685
29	0xbc045a4d	-0.00807817
30	0xbec31cf6	-0.38108033
31	0xbdaf4bb2	-0.085593596
32	0x3ca79362	0.02045602
33	0xbea0997c	-0.313671
34	0x3f234e1f	0.6379108
35	0x3d9f6001	0.07781983
36	0xbf033a45	-0.5126079
37	0x3e993d6b	0.2992967
38	0xbd3cf537	-0.046132293
39	0xbf043cc4	-0.5165522
40	0x3c980a94	0.018559732
41	0xbe0e4e48	-0.1389705
42	0xbe855b8f	-0.26046416
43	0xbda5383b	-0.08067366
44	0xbe95677f	-0.29180524
45	0xbeaa40c2	-0.3325253
46	0xbe809262	-0.2511168
47	0x3e846e5b	0.25865445
48	0xbdd121be	-0.10211514
49	0x3f043a50	0.5165148
50	0x3bf414e6	0.0074487804
51	0x3e1be62c	0.15224522
52	0xbd906363	-0.070502065
53	0xbe0c5a8d	-0.13706417
54	0x3d77870a	0.060431518
55	0xbe6a5f35	-0.22887881
56	0xbd858dcc	-0.06521186
57	0x3f23933b	0.6389653
58	0xbe27a3e4	-0.16371113
59	0xbd6b51e6	-0.05745115

base.0linear.bias f4 [20]
0	0xbf07af2d	-0.5300167
1	0xbf5ff18c	-0.87477946
2	0x3edfae12	0.43687493
3	0x3fe9b1c2	1.8257372
4	0xbef5b411	-0.47988942
5	0xbf6ba8f2	-0.92054665
6	0xbf8ba3ee	-1.0909402
7	0xbf5b7bbc	-0.8573568
8	0xbf67c0d5	-0.90528613
9	0x3ea05218	0.31312633
10	0x3f27d746	0.65562856
11	0xbf1240a3	-0.5712988
12	0xbe0177af	-0.12643312
13	0x3f3618d5	0.7113164
14	0xbf114805	-0.5675052
15	0xbf5e5479	-0.86847645
16	0xbdf320d9	-0.118714996
17	0x3f8f8039	1.1211005
18	0x3f089342	0.533497
19	0x3eeba8aa	0.46027118

base.1linear.weight f4 [20, 20]
0	0xbe18582c	-0.14877385
1	0xbd95dd8e	-0.07317649
2	0xbda77079	-0.08175749
3	0x3e9787f2	0.29595906
4	0x3e2db45a	0.1696333
5	0xbe30b3f4	-0.17256147
6	0xbec5b1a4	-0.38612092
7	0x3dcf2e3b	0.1011624
8	0xbdf1ef9b	-0.11813279
9	0x3e08bd16	0.1335338
10	0xbe94fce6	-0.29099196
11	0xbddec231	-0.10876883
12	0x3db08c8a	0.08620556
13	0xbe23ed47	-0.16008483
14	0x3e9e855b	0.30961117
15	0x3f270c69	0.6525331
16	0x3d8b6b49	0.068075724
17	0x3f43a338	0.7642093
18	0x3f508a40	0.8146095
19	0xbe3301e0	-0.17481184
20	0xbe7182c7	-0.23585044
21	0xbef44804	-0.47711194
22	0x3eae45fa	0.34037763
23	0x3e07e1a4	0.13269669
24	0x3e015ba6	0.12632617
25	0xbc9f2430	-0.019426435
26	0xbfadad32	-1.356848
27	0x3e8a6fc6	0.270384
28	0x3eba2d9a	0.36362916
29	0x3e9ca35d	0.30593386
30	0xbd07b936	-0.033135615
31	0xbf05e1cd	-0.5229767
32	0xbe82824c	-0.25490034
33	0x3e38a76d	0.18032618
34	0x3eff9be7	0.49923632
35	0x3f2781ab	0.6543223
36	0x3f0c37f9	0.5477291
37	0xbe850671	-0.25981477
38	0xbd31bd08	-0.043393165
39	0x3ed875e6	0.4227745
40	0x3ee9845b	0.45608792
41	0x3f14d1eb	0.5813281
42	0xbdc420a2	-0.09576537
43	0x3d34092d	0.043954063
44	0xbec85a9f	-0.39131638
45	0x3eef99a0	0.46796894
46	0x3ea795fd	0.3273162
47	0x3d667e94	0.056273058
48	0xbf0a35ec	-0.5398853
49	0xbe068375	-0.13136084
50	0xbdbe3cef	-0.09288966
51	0xbc1f83ee	-0.009736044
52	0x3d861d5b	0.06548568
53	0xbe72c562	-0.23708108
54	0x3e92fbb1	0.2870765
55	0x3e51190a	0.20419708
56	0x3df50653	0.11964097
57	0x3f75bfda	0.9599587
58	0x3f93ffb4	1.1562409
59	0xbdb6a2a0	-0.08917737
60	0xbe22901e	-0.15875289
61	0xbe82075b	-0.25396237
62	0x3d013aeb	0.03155033
63	0x3e2fa597	0.17153011
64	0x3f8151b0	1.0103054
65	0x3e016c61	0.12639
66	0x3e530e64	0.20610958
67	0xbeb1b064	-0.34704888
68	0xbe98b59a	-0.2982605
69	0x3e579aa3	0.21055083
70	0xbd9de24f	-0.077091806
71	0x3e801c87	0.25021765
72	0xbd8767a9	-0.066115685
73	0xbd7de2ea	-0.06198398
74	0x3e5c6c2f	0.21525644
75	0x3e8a5240	0.27015877
76	0x3dfa65a7	0.1222642
77	0xbef7d1eb	-0.48402342
78	0x3e3cc72b	0.18435352
79	0x3e5fc4b6	0.21852383
80	0xbe57854d	-0.21046944
81	0x3ed5113e	0.41614717
82	0x3e32b2b3	0.17450981
83	0x3ed72cd8	0.420264
84	0xbe64a76a	-0.22329488
85	0xbf3bb004	-0.73315454
86	0xbcd677c4	-0.026180156
87	0xbac59846	-0.0015075288
88	0x3dc69828	0.0969699
89	0x3e1c0f69	0.15240254
90	0x3df1edf3	0.11812963
91	0xbf173ef5	-0.5908044
92	0xbde54d58	-0.11196393
93	0x3ea42759	0.3206127
94	0xbe2d7183	-0.16937833
95	0x3c3241dc	0.01087996
96	0xbf07b638	-0.5301242
97	0xbec4241e	-0.38308805
98	0xbee0b6d8	-0.438895
99	0xbe7aaada	-0.24479237
100	0xbd6a7778	-0.05724284
101	0x3d030eb2	0.031996436
102	0xbe050935	-0.12991793
103	0xbebfc520	-0.37455082
104	0x3eb29555	0.34879556
105	0x3e119ec8	0.14220726
106	0x3cc3b283	0.023888832
107	0x3ea29e8a	0.3176158
108	0xbdf73a7c	-0.12071702
109	0xbe31babd	-0.17356391
110	0x3e444119	0.19165458
111	0x3e9fabf9	0.31185892
112	0xbe990fbe	-0.29894823
113	0x3e37ea35	0.17960437
114	0x3d4ea20b	0.050447505
115	0x3edbe3fa	0.4294737
116	0x3ddec166	0.108767316
117	0x3e8210c0	0.25403404
118	0x3f4c468b	0.7979514
119	0xbe02b0fc	-0.12762827
120	0x3e39720d	0.18109913
121	0xbe2f8932	-0.1714218
122	0xbec931f9	-0.3929594
123	0x3eef745a	0.46768457
124	0xbf482fdc	-0.7819803
125	0x3f0a4410	0.54010105
126	0x3f3f2159	0.7466026
127	0x3e32eef7	0.1747397
128	0xbe0451ab	-0.12921779
129	0x3f276941	0.6539498
130	0xbe73d927	-0.23813306
131	0x3e06758f	0.13130783
132	0x3e57d4c2	0.21077254
133	0x3e41694a	0.18887821
134	0x3e99c517	0.3003318
135	0xbdb14375	-0.086554445
136	0x3f2a5629	0.6653772
137	0xbdb23691	-0.08701814
138	0xbfab167e	-1.3366239
139	0xbe9bf379	-0.30459192
140	0xbe3a5f69	-0.18200459
141	0x3ec70378	0.38869834
142	0x3e3c9998	0.18417966
143	0x3f0285d0	0.5098543
144	0x3f0b5650	0.5442858
145	0xbebea937	-0.37238476
146	0xbf266b1e	-0.650072
147	0xbf28bccd	-0.6591309
148	0xbf2b758b	-0.6697623
149	0xbc5364d6	-0.012902459
150	0xbd886e9d	-0.06661723
151	0x3efadfd9	0.48998907
152	0x3ebce6f0	0.3689494
153	0x3e2f7cad	0.17137404
154	0xbec19fd4	-0.37817252
155	0xbee65e8f	-0.44994017
156	0x3da1c4e0	0.07898879
157	0x3da53ec1	0.0806861
158	0xbeb447ef	-0.3521113
159	0x3e31842f	0.1733558
160	0xbdc8fdef	-0.09814059
161	0xbe899047	-0.26867887
162	0x3dc2d7be	0.09513806
163	0xbf4863fc	-0.78277564
164	0xbf56721a	-0.83767855
165	0x3e4ccfa3	0.20001082
166	0xbf20c942	-0.62807095
167	0x3ecc30c1	0.39880946
168	0x3deaea3a	0.114704564
169	0x3d9cdd1e	0.07659362
170	0xbf24fa65	-0.6444457
171	0xbcba929c	-0.022774987
172	0xbd1c9cc2	-0.038235433
173	0x3e4284fd	0.18996044
174	0xbefcc1a1	-0.49366477
175	0x3e9a4ee5	0.30138317
176	0xbe0c5c1f	-0.13707016
177	0xbdb135f7	-0.08652871
178	0xbc8316cf	-0.016002087
179	0xbf2f0849	-0.6837202
180	0x3e117286	0.14203843
181	0x3e9c8541	0.30570415
182	0xbdf712a2	-0.12064101
183	0xbe2e1807	-0.17001353
184	0x3f35aec6	0.7096981
185	0xbedb140f	-0.4278874
186	0xbcaae2d2	-0.02086011
187	0xbe08669f	-0.13320397
188	0xbf2ccf5b	-0.675039
189	0xbd613030	-0.054977596
190	0xbe9b9ffb	-0.30395493
191	0xbca09574	-0.019602515
192	0x3e91cdcf	0.28477332
193	0xbe12362d	-0.14278479
194	0xbe2b8e79	-0.16753568
195	0xbf47f2cb	-0.7810485
196	0xbd82a00c	-0.06378183
197	0xbf1d9a8b	-0.6156394
198	0xbf31ea20	-0.6949787
199	0xbe651895	-0.22372659
200	0x3adc82cc	0.0016823648
201	0xbea47c3b	-0.3212603
202	0xbe1518cc	-0.1456024
203	0x3e8bde31	0.27317956
204	0xbdd5dcb9	-0.1044249
205	0xbe975094	-0.29553664
206	0x3ec31295	0.38100114
207	0xbe968539	-0.29398516
208	0x3ed59601	0.41716006
209	0x3da9aa8c	0.08284482
210	0xbe20247f	-0.15638922
211	0xbe7f4cf3	-0.24931698
212	0xbe124b0d	-0.14286442
213	0xbede19b3	-0.43378982
214	0x3eb60892	0.35553414
215	0x3db19a83	0.08672049
216	0x3e63e347	0.22254668
217	0xbf1e71c2	-0.6189233
218	0xbe9d76ec	-0.30754793
219	0xbcb5a465	-0.022173116
220	0x3e0abc5d	0.13548417
221	0xbca66914	-0.020313777
222	0x3da2ea3e	0.079548344
223	0xbdc8c5dd	-0.098033644
224	0x3f4dad50	0.8034258
225	0x3ed2228e	0.41041988
226	0xbee51ce1	-0.44748595
227	0xbf292eaa	-0.6608683
228	0x3ecf7b4d	0.4052376
229	0x3e1ad7d7	0.15121399
230	0x3e8a40b2	0.27002484
231	0x3e04b5d5	0.12959988
232	0xbe35abf6	-0.17741379
233	0x3d4ee371	0.050509874
234	0xbedbaeba	-0.42906743
235	0x3d77f7d8	0.060539097
236	0xbd2a8619	-0.04163179
237	0xbe5e1212	-0.21686581
238	0x3d6a537e	0.05720853
239	0x3cfd1505	0.030893812
240	0xbe8f8ec0	-0.28038597
241	0x3d8ddb81	0.06926633
242	0x3e68751c	0.22700924
243	0x3dbb73ba	0.091529325
244	0x3f92c896	1.1467464
245	0xbe4d7229	-0.2006308
246	0x3e6630fc	0.22479624
247	0xbecbbac4	-0.39790928
248	0x3f5e5f61	0.86864287
249	0xbee73c0a	-0.45162994
250	0xbedbecba	-0.42954046
251	0xbe82a477	-0.25516102
252	0xbe5d09e9	-0.21585812
253	0xbd8924f5	-0.06696502
254	0x3e452d3f	0.19255541
255	0xbec21fb9	-0.37914827

base.1linear.bias f4 [20]
0	0xbe50cda1	-0.20390941
1	0x3d8897a1	0.06669546
2	0x3d1bcd0a	0.038037337
3	0x3c1f6d7e	0.009730695
4	0xbe5ad28d	-0.21369381
5	0x3de9f6d6	0.11424033
6	0xbec06763	-0.37578878
7	0x3e218508	0.15773404
8	0x3d97b315	0.07407204
9	0xbbd5d5f0	-0.0065257475
10	0xbe6bec32	-0.2303932
11	0x3dad4d18	0.0846197
12	0xbe623877	-0.22091852
13	0x3dea5525	0.11442021
14	0xbc9949ab	-0.018711885
15	0xbe029623	-0.12752585
16	0x3e6230a1	0.22088863
17	0xbe034039	-0.12817468
18	0x3e2a80c8	0.16650689
19	0x3d047a83	0.0323434

base.2linear.weight f4 [20, 20]
0	0x3f1e157e	0.61751544
1	0xbd8fa854	-0.07014528
2	0xbf57fdf0	-0.8437185
3	0x3e40e252	0.18836334
4	0xbe0fc8c0	-0.14041424
5	0x3de9ffe5	0.11425761
6	0x3e6798cd	0.22616883
7	0xbe6d806e	-0.23193523
8	0xbeefe66c	-0.46855485
9	0xbf32fcbe	-0.69916904
10	0x3e0c4e30	0.13701701
11	0xbf0c201f	-0.5473651
12	0xbec52339	-0.38503435
13	0xbf1fd19f	-0.6242923
14	0x3ec0ade4	0.37632668
15	0xbf3882d5	-0.72074634
16	0xbc587164	-0.013210628
17	0xbec3bda4	-0.38230622
18	0xbf6392dd	-0.8889597
19	0xbf6108b3	-0.879039
20	0xbd13042d	-0.035892654
21	0x3ed31897	0.41229698
22	0x3ea5e4cb	0.32401118
23	0x3e15a7fb	0.1461486
24	0x3c5bc3c4	0.013413373
25	0xbedb5f8c	-0.42846334
26	0xbd123340	-0.035693407
27	0xbf70b705	-0.94029266
28	0xbec25d40	-0.3796177
29	0x3e624cfa	0.22099677
30	0x3f07b8f2	0.5301658
31	0xbed05b48	-0.40694642
32	0x3ea598b7	0.32343075
33	0xbdd9915e	-0.1062343
34	0xbf15c847	-0.58508724
35	0x3dd0cd2d	0.10195384
36	0x3eaf3eec	0.34227693
37	0x3e8b6605	0.27226272
38	0x3f17a2a2	0.5923253
39	0x3cf78d95	0.030218879
40	0x3ea4f25e	0.3221616
41	0x3e93175d	0.28728762
42	0xbe54600a	-0.20739761
43	0xbeccd910	-0.40009356
44	0xbe22b1a8	-0.15888083
45	0xbdd1168e	-0.1020938
46	0x3e7d5c18	0.24742162
47	0x3e2634d0	0.16231084
48	0x3e5154c4	0.20442492
49	0x3ee5ecc5	0.44907203
50	0xbe5ebe1c	-0.21752208
51	0x3ec0005a	0.37500268
52	0x3f02cfad	0.5109814
53	0xbe185d6f	-0.14879392
54	0x3e177c2d	0.14793463
55	0x3f0490e7	0.51783603
56	0xbe8a69d1	-0.27033857
57	0x3f8fc045	1.1230551
58	0xbe4f3e47	-0.202386
59	0xbf06faf4	-0.52726674
60	0x3e88bc95	0.26706377
61	0xbf1738fd	-0.5907133
62	0xbf0faf16	-0.56126535
63	0x3d70c873	0.058784913
64	0xbe0cc26b	-0.1374604
65	0xbd5d61f4	-0.054048494
66	0x3e882707	0.26592276
67	0x3c7226a3	0.0147797195
68	0x3c0066f9	0.007837051
69	0xbe8550e5	-0.2603828
70	0x3e830333	0.25588378
71	0x3ed693af	0.4190955
72	0x3f0d1e39	0.5512424
73	0x3e555d9f	0.20836495
74	0xbe977fdb	-0.29589733
75	0xbf3d0c97	-0.73847336
76	0x3ea49a4e	0.32148975
77	0xbed2805f	-0.41113564
78	0xbf562d0c	-0.83662486
79	0x3e01b75e	0.12667605
80	0xbedeb36e	-0.4349627
81	0xbf07eb03	-0.53092974
82	0xbe7d02d5	-0.24708112
83	0x3e5111ac	0.20416898
84	0x3d97d465	0.07413558
85	0x3ed89b03	0.42305765
86	0xbf1b0386	-0.6055225
87	0x3ee0769d	0.43840495
88	0x3ed294e9	0.41129234
89	0x3efd1bd8	0.49435306
90	0xbeee375c	-0.4652661
91	0xbedb7b2c	-0.4286741
92	0xbee816e1	-0.45329955
93	0xbf535070	-0.8254461
94	0x3d365b10	0.044520438
95	0xbeaa79a4	-0.3329593
96	0xbcda9ce1	-0.026686134
97	0xbee6f0b0	-0.45105505
98	0xbf165bfd	-0.5873411
99	0xbe315215	-0.17316468
100	0xbf168a09	-0.58804375
101	0xbf2de100	-0.6792145
102	0x3f263ad3	0.6493351
103	0x3ee1bb03	0.4408799
104	0xbdb557eb	-0.0885466
105	0x3d925e69	0.071469136
106	0xbf68ae75	-0.908912
107	0x3f574ba5	0.840998
108	0x3f2ae4be	0.6675528
109	0x3f8d486f	1.103773
110	0xbf02c49f	-0.5108127
111	0x3e627298	0.22114027
112	0xbe7d6e4f	-0.2474911
113	0x3eb21a0f	0.34785506
114	0xbf6635d8	-0.8992591
115	0xbee260da	-0.44214517
116	0x3eae5fc0	0.34057426
117	0xbd2c45ab	-0.042058628
118	0x3ec86f29	0.39147308
119	0x3e8233d8	0.2543018
120	0x3ed09779	0.40740564
121	0xbe8adc48	-0.27121186
122	0xbe0327c7	-0.12808143
123	0x3de8060e	0.1132928
124	0x3df20f67	0.11819344
125	0xbd30ee40	-0.043195963
126	0xbd8c9b53	-0.06865563
127	0x3dcd045f	0.10010599
128	0xbf27156d	-0.6526707
129	0xbeca0d9b	-0.39463505
130	0xbe3c8375	-0.18409522
131	0xbe7c88db	-0.24661581
132	0x3eb5e0c8	0.35523057
133	0xbe72d96f	-0.23715757
134	0x3e3f7e40	0.18700504
135	0x3e0ac755	0.13552602
136	0x3e31ad36	0.17351231
137	0x3f2cc553	0.6748859
138	0x3e0fd66d	0.1404664
139	0xbebc73cf	-0.36807105
140	0x3d8f128b	0.06985959
141	0x3e1e3d42	0.15453056
142	0xbecbaf17	-0.3978202
143	0xbda15906	-0.07878308
144	0xbe4a996f	-0.19785093
145	0x3ec74d7d	0.38926306
146	0xbe22328c	-0.15839595
147	0xbe5e3b64	-0.21702343
148	0x3ec102c6	0.37697428
149	0xbf06f8b8	-0.52723265
150	0x3dae3c15	0.085075535
151	0x3e5fc603	0.21852879
152	0x3e1a00ae	0.15039322
153	0x3df11d32	0.11773147
154	0xbd4755eb	-0.048665922
155	0xbe7ba2ea	-0.24573866
156	0x3f4887b4	0.78332067
157	0x3eb125c0	0.34599113
158	0x3ed4e5ca	0.41581565
159	0x3e499d1c	0.19688839
160	0xbf274298	-0.6533599
161	0xbd0a344f	-0.03374129
162	0xbe0ae7fa	-0.13565055
163	0x3f4c31e9	0.79763657
164	0x3f0e873a	0.5567509
165	0x3ef616c3	0.4806424
166	0x3eadd7b0	0.3395362
167	0xbcec4b81	-0.028844597
168	0x3e3cfaa6	0.1845499
169	0x3eeddcdc	0.46457565
170	0xbe9d9a87	-0.30781958
171	0x3f34aec7	0.7057919
172	0x3e67e1b1	0.22644688
173	0x3e547825	0.20748957
174	0x3b5bcad2	0.0033537638
175	0xbd241683	-0.04006053
176	0xbee3c892	-0.4448896
177	0x3ef76361	0.48318008
178	0xbe36286e	-0.1778886
179	0x3df88335	0.12134401
180	0xbe66ca5a	-0.22538128
181	0x3ea015ce	0.31266636
182	0x3f03c41a	0.514711
183	0x3d4bb40c	0.049732253
184	0xbf05fcd1	-0.5233889
185	0x3ea8c197	0.32960197
186	0xbd83a01b	-0.06427022
187	0xbf378c6a	-0.7169863
188	0x3e674d29	0.22588028
189	0x3ea6ef88	0.32604623
190	0xbf3c3aa5	-0.73526984
191	0xbe9ab63c	-0.3021716
192	0xbe8142d1	-0.2524629
193	0xbea43312	-0.32070214
194	0x3e1303ac	0.1435687
195	0x3d8105a3	0.06299903
196	0x3e3b194a	0.18271366
197	0xbc861ae6	-0.016370248
198	0xbed8feac	-0.423818
199	0x3f10a321	0.56498915
200	0xbe87d9a2	-0.26533228
201	0xbee845f7	-0.4536588
202	0xbe041862	-0.12899926
203	0xbd8c2558	-0.0684306
204	0xbd8e32c4	-0.069432765
205	0xbc81340a	-0.015771884
206	0x3bb5f5a7	0.0055529657
207	0xbd48c05e	-0.04901158
208	0x3f0a20ce	0.53956306
209	0xbe8a6b00	-0.2703476
210	0x3dadcf9c	0.08486864
211	0x3e45dedc	0.19323295
212	0xbeba796b	-0.3642076
213	0xbed23744	-0.4105779
214	0xbefeadc5	-0.4974195
215	0xbd2d0e82	-0.042250164
216	0xbf70fe49	-0.9413801
217	0xbf403b3f	-0.750904
218	0xbea979ae	-0.33100647
219	0x3eb09fd0	0.34496927
220	0x3e3ad6c5	0.1824599
221	0x3e10057c	0.14064592
222	0x3e78b699	0.24288405
223	0x3e591966	0.21201095
224	0xbed2c179	-0.41163233
225	0xbd66ef5b	-0.05638061
226	0x3dd4e9c3	0.10396149
227	0x3eb570f9	0.35437754
228	0xbf00751e	-0.50178707
229	0x3e1cd340	0.1531496
230	0x3db8a17a	0.09015174
231	0x3e8ac0d6	0.27100247
232	0x3f02fc9a	0.5116669
233	0xbebacbe0	-0.3648367
234	0x3e9e74f7	0.30948612
235	0x3e7fb393	0.24970846
236	0xbdd0d175	-0.10196201
237	0x3e21226e	0.1573579
238	0xbe865aa2	-0.26241022
239	0x3cca3da0	0.024687588
240	0x3c6f7ed4	0.0146176405
241	0x3d391111	0.04518229
242	0x3ed9d63b	0.42546257
243	0xbe5b52d2	-0.21418312
244	0xbf1b6de2	-0.6071454
245	0xbd0c0d46	-0.034192346
246	0x3eefa5f2	0.46806294
247	0xbe52e802	-0.20596316
248	0x3e5c77c4	0.21530062
249	0x3f210b5c	0.6290796
250	0xbb68857c	-0.0035479954
251	0xbf5edae6	-0.8705276
252	0xbebd35d7	-0.3695514
253	0x3e5767bf	0.2103567
254	0xbe40968e	-0.18807432
255	0x3d9ac41b	0.075569354

base.2linear.bias f4 [20]
0	0xbe70374e	-0.23458597
1	0x3da3e85a	0.08003302
2	0xbdb55d6e	-0.08855711
3	0xbe18e351	-0.14930464
4	0x3dc0c060	0.094116926
5	0x3e94118c	0.28919637
6	0xbdbdf086	-0.09274392
7	0xbe499f35	-0.19689639
8	0xbe6467c1	-0.22305204
9	0xbd870941	-0.06593562
10	0x3de2fbed	0.11083207
11	0xbe3163ed	-0.17323275
12	0xbb36a9f1	-0.002787229
13	0xbcaafae5	-0.020871589
14	0x3ac0e69a	0.0014717162
15	0x3db0a99f	0.08626103
16	0xbe62ad79	-0.22136487
17	0x3d018101	0.03161717
18	0x3df14417	0.11780565
19	0x3d202c30	0.03910464

base.3linear.weight f4 [20, 20]
0	0x3ec34a4c	0.38142622
1	0xbeb09fb8	-0.34496856
2	0xbe4dd104	-0.20099264
3	0xbe7ba26c	-0.24573678
4	0xbdb0e4f3	-0.086374186
5	0x3e6bf0df	0.23041104
6	0xbebe0f89	-0.37121227
7	0x3e8fe7b9	0.28106478
8	0xbe750beb	-0.23930328
9	0xbf1d650e	-0.6148232
10	0x3f03f22b	0.51541394
11	0xbe3ff114	-0.18744308
12	0x3da475ac	0.08030257
13	0xbe716e88	-0.2357732
14	0x3ef9dd1c	0.48801506
15	0xbe8113d8	-0.25210452
16	0xbef009a3	-0.46882352
17	0x3e8d78c2	0.27631193
18	0xbe11311b	-0.14178888
19	0x3d21953c	0.03944896
20	0xbdef0d6b	-0.11672481
21	0x3dd1d4fd	0.102457024
22	0x3f15f6ac	0.58579516
23	0xbf9cccca	-1.2249997
24	0x3d2a3a08	0.04155925
25	0x3ee1ae5f	0.44078347
26	0x3ce25276	0.027627211
27	0x3f184557	0.59480804
28	0x3e55b3db	0.2086939
29	0xbdff0867	-0.124527745
30	0xbf33ada5	-0.70186836
31	0x3eba195c	0.36347473
32	0xbf34d5ce	-0.7063874
33	0x3da419f4	0.08012763
34	0xbec8a944	-0.3919164
35	0xbe35c226	-0.17749843
36	0xbf13f851	-0.57800776
37	0x3ea9e979	0.33185938
38	0xbe74d310	-0.23908639
39	0x3f3b8e0a	0.7326361
40	0x3cbab967	0.022793485
41	0xbebdbb10	-0.3705678
42	0xbe38136b	-0.17976157
43	0xbd0cae0b	-0.034345668
44	0x3e0a903c	0.13531584
45	0xbdaf1a57	-0.08549946
46	0xbe4f5fa8	-0.20251334
47	0xbeb4e6ee	-0.35332435
48	0xbcc33a3b	-0.023831477
49	0x3e20fa51	0.15720488
50	0x3f05b718	0.52232504
51	0xbdb0f409	-0.08640296
52	0x3d90207c	0.07037446
53	0xbcc71971	-0.024304124
54	0x3f33cf7b	0.70238465
55	0x3d5646f2	0.052313752
56	0xbe820650	-0.2539544
57	0x3f0489e9	0.51772934
58	0xbda5c0f8	-0.080934465
59	0xbbdf2b50	-0.006810583
60	0x3c4d041a	0.012513185
61	0xbf14841e	-0.58014095
62	0x3d9f2a38	0.077717245
63	0xbe82cd2e	-0.25547165
64	0xbeec6179	-0.46168116
65	0xbe371337	-0.17878424
66	0xbe300d54	-0.17192584
67	0x3ef087fe	0.46978754
68	0x3efdc09e	0.49561018
69	0xbc5d284c	-0.013498377
70	0xbed77e06	-0.42088336
71	0xbf5c983e	-0.86169803
72	0xbf09ab38	-0.53776884
73	0xbe7514a4	-0.23933655
74	0xbf038d87	-0.5138783
75	0xbe1d0241	-0.15332891
76	0xbe3904c9	-0.18068232
77	0xbd73342b	-0.059375923
78	0x3c855a18	0.016278312
79	0xbe7e462e	-0.24831459
80	0x3c9e41b3	0.019318437
81	0x3e8017d7	0.25018188
82	0x3f49282b	0.78576916
83	0x3ced2145	0.028946528
84	0xbe8fbc07	-0.2807314
85	0xbc32a254	-0.01090296
86	0xbe98e7c8	-0.29864335
87	0xbe632bbe	-0.22184655
88	0x3e02589a	0.12729111
89	0xbee86e2d	-0.45396557
90	0x3ede812c	0.43457925
91	0xbdbfaa7a	-0.09358688
92	0x3ecc4fd3	0.3990465
93	0xbf0b9787	-0.5452809
94	0xbe3dc96a	-0.18533865
95	0x3d209ad9	0.039210174
96	0xbec50a33	-0.38484344
97	0x3f10716f	0.56423086
98	0xbf0920c2	-0.5356561
99	0xbe658b23	-0.22416358
100	0xbe6f1d9f	-0.23351143
101	0x3e4563c3	0.19276337
102	0x3cdb704e	0.02678695
103	0xbdb86de0	-0.09005332
104	0xbe72f33c	-0.23725599
105	0xbe305156	-0.17218527
106	0xbcbdd818	-0.02317433
107	0xbf085720	-0.5325794
108	0x3f036459	0.51324993
109	0xbee77a83	-0.45210657
110	0x3d1fe174	0.03903337
111	0xbd99197c	-0.07475564
112	0x3e0fb2e3	0.14033084
113	0x3ac10913	0.0014727436
114	0xbdf5672b	-0.11982568
115	0x3eca99d3	0.39570484
116	0xbd88445f	-0.06653666
117	0xbe491c65	-0.19639738
118	0x3e0ebb54	0.13938648
119	0x3f2f8686	0.6856464
120	0xbcdc9f53	-0.02693144
121	0xbdd6dd24	-0.10491398
122	0x3e0bb886	0.13644609
123	0xbdbd86bb	-0.092542134
124	0xbf42ddba	-0.7611958
125	0xbe0f1cb9	-0.139758
126	0x3e87112f	0.26380298
127	0x3f02d1e9	0.5110155
128	0xbf576331	-0.8413573
129	0x3eb60e59	0.3555782
130	0xbedd58c3	-0.43231782
131	0xbeb339b0	-0.3500495
132	0x3c4a1d93	0.012336153
133	0x3deb728b	0.11496457
134	0xbd44a058	-0.04800448
135	0xbc3c989f	-0.011510997
136	0x3ddea80c	0.10871896
137	0x3ee9ebb4	0.4568764
138	0x3e9406a0	0.28911304
139	0x3e8c8f5d	0.27453128
140	0x3f176f74	0.5915444
141	0xbd8dd35e	-0.06925081
142	0x3ea3a6ef	0.31963298
143	0xbeb69185	-0.35657898
144	0xbdd55246	-0.10416083
145	0x3ee8c610	0.4546361
146	0x3f1e207c	0.6176832
147	0xbcff875f	-0.03119248
148	0x3e095c2b	0.13414066
149	0x3ca924ac	0.02064737
150	0x3e382521	0.17982914
151	0x3e06f1fd	0.13178249
152	0x3cfea840	0.031086087
153	0x3d6614d3	0.056172203
154	0xbe675fe2	-0.2259517
155	0xbcc82f97	-0.024436755
156	0x3e0d8acc	0.13822478
157	0x3f07dbfd	0.5307005
158	0xbea8f1cc	-0.32996976
159	0xbed42c2f	-0.4143996
160	0x3d36e328	0.044650227
161	0x3dc75879	0.09733672
162	0x3ec1ae24	0.3782817
163	0xbe2fdb70	-0.17173553
164	0xbe858865	-0.26080623
165	0xbf0c82f4	-0.5488732
166	0x3f060ee5	0.5236648
167	0xbe8bb16b	-0.27283797
168	0x3eab1c2c	0.3341993
169	0x3cf9ef11	0.030509504
170	0xbe5296db	-0.2056536
171	0xbf1bba9c	-0.6083162
172	0xbc395f3a	-0.011314208
173	0xbeef7861	-0.4677153
174	0xbee7d411	-0.4527898
175	0xbe986dd2	-0.29771286
176	0xbf4cfa08	-0.8006902
177	0xbebc9588	-0.36832833
178	0x3e74ec06	0.23918161
179	0xbeadfc3e	-0.33981508
180	0x3e9b38c4	0.30316746
181	0x3eca22a7	0.39479563
182	0x3d334ef3	0.043776464
183	0x3e3b075c	0.18264526
184	0xbe87b695	-0.26506487
185	0x3d80c261	0.06287075
186	0x3e8e7261	0.2782164
187	0x3e0ef75b	0.13961546
188	0xbe36bad8	-0.17844713
189	0x3df892cd	0.12137375
190	0x3eb581cf	0.354506
191	0xbf1c579a	-0.6107117
192	0x3e567e47	0.20946608
193	0xbf66b5a6	-0.90120924
194	0x3d4bdd0c	0.049771354
195	0xbee3c1f7	-0.4448392
196	0xbe58e381	-0.21180536
197	0xbee49119	-0.4464195
198	0x3eb46a11	0.35237172
199	0x3e439825	0.19101007
200	0x3db87ac5	0.090077914
201	0x3dc36e32	0.095425025
202	0x3e4a4a19	0.19754829
203	0xbdb38e75	-0.08767406
204	0xbe5d41e1	-0.21607162
205	0xbed7c318	-0.42141032
206	0xbf0e8f44	-0.55687356
207	0xbef6c158	-0.48194385
208	0xbf272750	-0.6529436
209	0xbd9a576e	-0.07536207
210	0xbeac06af	-0.3359885
211	0x3e437a2a	0.1908957
212	0x3da98986	0.08278184
213	0xbef2c281	-0.4741402
214	0x3ccb686b	0.024830064
215	0xbe0e5314	-0.1389888
216	0x3ecfe28b	0.40602526
217	0xbec46de9	-0.38365105
218	0xbe90b081	-0.28259662
219	0xbe36c2f5	-0.17847808
220	0xbe5492aa	-0.20759073
221	0x3ec0c11e	0.37647337
222	0x3f24b9cf	0.6434602
223	0x3e6d1f5c	0.23156494
224	0x3e46b64d	0.1940548
225	0xbebfe57c	-0.3747977
226	0xbd478ab8	-0.048716277
227	0x3d1c5640	0.038168192
228	0x3ee7611f	0.45191285
229	0x3d0ea3e0	0.034824252
230	0xbdfc4771	-0.12318314
231	0x3e7f3ffe	0.24926755
232	0x3eaa3f42	0.33251387
233	0xbd3faf4a	-0.046798028
234	0x3ecb3f20	0.39696598
235	0x3dd10aaa	0.10207112
236	0x3db850f1	0.08999813
237	0xbe81998f	-0.25312468
238	0xbe01c6a6	-0.12673435
239	0x3e3a0d99	0.1816925
240	0x3ebf7839	0.3739641
241	0x3e3c4dc1	0.18389036
242	0xbdf03f94	-0.117308766
243	0x3d9f29c3	0.07771637
244	0x3dc5b1d5	0.096530594
245	0xbf08880b	-0.53332585
246	0xbef4677e	-0.47735208
247	0x3cdae65a	0.026721168
248	0xbe98cdd6	-0.2984454
249	0x3eadad25	0.3392116
250	0xbdbf179c	-0.09330675
251	0xbec71f1a	-0.38890916
252	0xbec70d98	-0.3887756
253	0xbf24a12e	-0.6430844
254	0xbecc4500	-0.39896393
255	0x3f0e1de3	0.55514354

base.3linear.bias f4 [20]
0	0x3e959a52	0.292193
1	0xbe35b896	-0.17746195
2	0xbcef95fc	-0.029246323
3	0x3d4474bd	0.047962893
4	0xbdf9f27d	-0.12204454
5	0x3e3a69c4	0.18204409
6	0xbe223feb	-0.15844695
7	0x3d807bc3	0.06273606
8	0x3d856652	0.06513657
9	0xbe890c78	-0.26767325
10	0x3b7082df	0.00366991
11	0x3d69e89d	0.057106603
12	0x3e944153	0.28956088
13	0xbe15a2ea	-0.14612928
14	0x3caac3a7	0.020845247
15	0xbda049e2	-0.07826592
16	0x3e0e8538	0.13918006
17	0x3e23f4eb	0.16011398
18	0x3e06fa6e	0.13181469
19	0x3e56c252	0.20972565

base.4linear.weight f4 [20, 20]
0	0xbf6421d0	-0.89114094
1	0xbe65bd21	-0.22435428
2	0xb9f8241c	-0.0004732915
3	0xbc126537	-0.008935264
4	0xbeb8f45a	-0.36123925
5	0xbe94e9d2	-0.2908464
6	0x3dfecc81	0.1244135
7	0x3e9404d7	0.28909943
8	0xbb150750	-0.0022739954
9	0xbd8f001a	-0.06982441
10	0xbe2a55af	-0.16634248
11	0x3d1a3da2	0.037656434
12	0xbebc314c	-0.3675636
13	0x3d1b459a	0.037908174
14	0xbcedbede	-0.029021677
15	0xbd197225	-0.037462372
16	0x3ebb6da6	0.36607093
17	0xbdaac6c0	-0.0833869
18	0xbcd5e081	-0.026108028
19	0x3d1565a3	0.03647388
20	0x3f38c05d	0.72168523
21	0xbf1a5a2a	-0.6029383
22	0xbde88e68	-0.11355287
23	0xbf3d1d3f	-0.7387275
24	0xbe0cde59	-0.13756694
25	0x3eab224e	0.3342461
26	0xbef99b1b	-0.4875115
27	0x3edbdbba	0.42941076
28	0x3ee5ba48	0.44868684
29	0xbf91d2a6	-1.139241
30	0xbed43429	-0.41446045
31	0xbf140c42	-0.57831204
32	0xbdf14a69	-0.11781771
33	0xbd09c219	-0.03363237
34	0x3f343e0b	0.7040717
35	0xbfa7455b	-1.3068041
36	0xbea08c98	-0.31357265
37	0x3f082159	0.53175884
38	0x3ef1ae99	0.4720352
39	0xbe75958e	-0.23982832
40	0xbdf9af2b	-0.12191614
41	0x3eeb3ef6	0.45946473
42	0xbdc99f02	-0.098447815
43	0xbdfa1547	-0.122110896
44	0x3c49e59b	0.012322809
45	0x3dd34325	0.10315541
46	0xbeefad46	-0.46811885
47	0x3e2f2e52	0.17107514
48	0x3f374f80	0.7160568
49	0xbec39590	-0.38200045
50	0xbd6b7e01	-0.057493214
51	0x3e0422f0	0.12903953
52	0xbef8dd1a	-0.48606187
53	0x3ebfdf84	0.37475216
54	0x3dd02c70	0.10164726
55	0xbc25d819	-0.0101223225
56	0xbefa85ca	-0.48930198
57	0xbd8bbb5a	-0.06822844
58	0x3f0f5b7f	0.55998987
59	0x3ee2c358	0.4428966
60	0xbdfe8b56	-0.1242892
61	0xbe3a6638	-0.18203056
62	0x3ead0df7	0.33799717
63	0x3dc90c33	0.0981678
64	0x397bcd70	0.00024013757
65	0xbe9dce38	-0.30821395
66	0xbe4cdd31	-0.20006253
67	0x3e78c6e8	0.24294627
68	0x3e2cc6ae	0.16872665
69	0xbd1b9927	-0.037987854
70	0xbf341b24	-0.70353913
71	0xbefddede	-0.49584097
72	0x3eeb9bcb	0.46017298
73	0xbf1fc471	-0.6240912
74	0xbda0e9de	-0.078571066
75	0x3f6bad48	0.9206128
76	0x3e82868e	0.25493282
77	0xbf5d5bbf	-0.8646812
78	0xbde85d39	-0.11345906
79	0xbddc56ca	-0.10758741
80	0x3dffbad9	0.1248681
81	0x3e6e68b4	0.23282129
82	0xbf0db356	-0.5535177
83	0x3e3f15f0	0.18660712
84	0x3dfd5e22	0.1237147
85	0xbe805eb3	-0.2507225
86	0x3df57b51	0.11986411
87	0xbbb26641	-0.0054443185
88	0xbe3fdcf3	-0.18736629
89	0xbde77b4a	-0.113028124
90	0xbeeed0a4	-0.46643555
91	0xbeabafa9	-0.33532456
92	0x3dbcd923	0.09221103
93	0xbe72dec4	-0.23717791
94	0xbe2c9f6a	-0.16857687
95	0x3e166d98	0.14690244
96	0x3e10c046	0.14135846
97	0xbe29b9b9	-0.16574754
98	0xbdf41f66	-0.11920051
99	0x3e850c5d	0.25985995
100	0x3ea14802	0.3150025
101	0x3e48d4e4	0.19612461
102	0x3e90f84a	0.2831443
103	0xbed35318	-0.41274333
104	0x3ef7b462	0.4837981
105	0x3e668b33	0.22514038
106	0x3f16f955	0.589742
107	0xbe8cc514	-0.2749411
108	0xbeec03fe	-0.46096796
109	0x3f066ebd	0.52512723
110	0xbef110c7	-0.47083113
111	0xbeaa043e	-0.33206362
112	0xbf14439e	-0.57915676
113	0xbeebf474	-0.4608494
114	0xbe8bcd5c	-0.27305114
115	0xbf36c177	-0.71388954
116	0xbe48cb89	-0.19608893
117	0xbef8d7ed	-0.48602238
118	0x3d6d6e24	0.057966366
119	0x3f35962f	0.70932287
120	0xbe3bac21	-0.1832738
121	0x3f17af0a	0.59251463
122	0x3e68d75a	0.227384
123	0x3e5db857	0.21652351
124	0x3d8652d3	0.06558766
125	0xbd8eefc5	-0.06979326
126	0x3ea6b2a5	0.3255817
127	0x3ee12750	0.43975306
128	0x3e22e7f7	0.159088
129	0xbd992750	-0.074782014
130	0xbf6e5541	-0.9309884
131	0xbee8ef17	-0.4549491
132	0x3d1a3d49	0.037656102
133	0xbf1d5b7d	-0.61467725
134	0x3df0b4dd	0.11753247
135	0xbf096e50	-0.5368395
136	0x3eff11a3	0.49818143
137	0xbef8ff0e	-0.4863209
138	0xbebacf41	-0.36486247
139	0xbebddf58	-0.3708446
140	0x3f0f3b43	0.559498
141	0x3e45760f	0.19283317
142	0x3e0ace33	0.13555221
143	0xbe99c94e	-0.30036396
144	0x3f0e2caa	0.555369
145	0x3e93dbf1	0.2887874
146	0x3e801bb5	0.2502114
147	0x3ef29ad5	0.47383752
148	0x3ee8f49d	0.45499125
149	0x3f422c5e	0.7584895
150	0x3e6a6e88	0.22893727
151	0xbf59bbbc	-0.85052085
152	0x3e67c3fa	0.22633353
153	0xbcda8c8c	-0.026678346
154	0xbdcc7917	-0.099840336
155	0x3e3da070	0.18518233
156	0x3d060fc7	0.03272989
157	0xbea51156	-0.3223979
158	0x3f44bd6a	0.7685152
159	0x3dca147f	0.098671906
160	0xbe380d29	-0.1797377
161	0x3e1d0ac2	0.15336135
162	0x3e9d244d	0.30691758
163	0x3f25b63a	0.6473118
164	0x3f065cbf	0.5248527
165	0xbed0890b	-0.40729555
166	0x3e182b23	0.14860205
167	0xbdcfa302	-0.10138513
168	0xbd10d992	-0.03536374
169	0x3dc20d56	0.094752
170	0x3e8c28e4	0.27374947
171	0x3efb60ef	0.49097392
172	0xbe97b78f	-0.29632232
173	0x3a998ad0	0.0011714343
174	0xbeee1d95	-0.46506944
175	0x3ddf9ec8	0.10918957
176	0x3eab26c5	0.33428016
177	0xbed5583e	-0.41668886
178	0xbe2ae962	-0.16690591
179	0x3c97661b	0.018481305
180	0x3eb11883	0.34589013
181	0x3e222acc	0.15836638
182	0xbd9dd8aa	-0.07707341
183	0xbefb4e69	-0.4908326
184	0xbdb47f16	-0.08813302
185	0x3d48d852	0.049034424
186	0x3ee5f0a4	0.44910157
187	0x3e33a704	0.1754418
188	0xbe792f2f	-0.24334405
189	0xbec79c0d	-0.38986245
190	0xbe6e9ed4	-0.23302776
191	0x3d80b772	0.062849894
192	0x3e43a833	0.19107132
193	0xbb30064d	-0.0026859224
194	0x3cfd62ef	0.030930964
195	0x3ebda45c	0.3703946
196	0xbf326b91	-0.69695383
197	0xbeeef10e	-0.46668285
198	0xbe9dde52	-0.3083368
199	0x3f4f9af6	0.81095827
200	0x3e9389c5	0.28816047
201	0xbe9752da	-0.29555398
202	0xbe884c72	-0.26620823
203	0xbf0fd728	-0.5618768
204	0x3e215dce	0.1575844
205	0x3e2f80b5	0.17138942
206	0xbcdda2a3	-0.02705509
207	0x3e94337d	0.28945532
208	0xbc5c8d16	-0.013461372
209	0xbd6928f7	-0.056923833
210	0x3e93d54a	0.28873664
211	0xbef0acaa	-0.47006732
212	0xbed70ed1	-0.42003492
213	0xbd692991	-0.056924406
214	0x3e603bdf	0.21897839
215	0x3e6933bf	0.22773646
216	0xbf264aed	-0.6495808
217	0xbca694cf	-0.02033463
218	0xbee0ab35	-0.4388062
219	0x3e7508dd	0.23929162
220	0x3e6a6fa3	0.22894149
221	0xbe0e1ae1	-0.13877441
222	0xbd9191e9	-0.07107908
223	0x3e5a3dcf	0.2131264
224	0x3e504fa3	0.20342879
225	0xbf188c01	-0.5958863
226	0x3e66dae0	0.22544432
227	0x3e1be9e2	0.15225938
228	0x3d416e91	0.047224585
229	0x3e3e6d02	0.1859627
230	0xbd8d6f3e	-0.069059834
231	0x3e026d4a	0.12737003
232	0xbec745df	-0.38920495
233	0x3e3a33ee	0.18183872
234	0x3e8fc7f0	0.28082228
235	0xbea4e4a4	-0.3220569
236	0x3e6ddbba	0.2322835
237	0x3ecee74b	0.40410838
238	0xbd772ecf	-0.060347375
239	0x3ed060a2	0.40698725
240	0xbf70e168	-0.9409394
241	0x3f1e4345	0.61821395
242	0x3e4e2bed	0.20133944
243	0x3ea3f7f2	0.32025105
244	0xbe708a9f	-0.2349038
245	0x3f1119c1	0.5667992
246	0xbe8a4872	-0.27008396
247	0x3e438acb	0.19095914
248	0xbf11f506	-0.570145
249	0xbf1c14b5	-0.60969096
250	0xbe357b9e	-0.17722937
251	0xbe3e7a00	-0.18601227
252	0xbe1e1e51	-0.15441252
253	0x3f2ab357	0.666799
254	0x3f0087cf	0.5020723
255	0x3d6d04c2	0.057865866

base.4linear.bias f4 [20]
0	0xbeb37461	-0.35049728
1	0x3e8856dd	0.2662877
2	0x3c1892a3	0.009312305
3	0xbcbdc350	-0.023164421
4	0x3c2fd58a	0.010732064
5	0xbe91717c	-0.28406894
6	0xbf024f26	-0.5090202
7	0xbd86c2bf	-0.065801136
8	0x3ab6f21e	0.0013957655
9	0xbf1e4914	-0.6183026
10	0x3caf506c	0.021400653
11	0x3df120fb	0.11773869
12	0x3ec2ee8e	0.38072628
13	0xbdad9b07	-0.08476835
14	0xbbfb954e	-0.0076777106
15	0x3eb41194	0.3516966
16	0x3ccf59dd	0.025311405
17	0xbdbb6ca9	-0.09151585
18	0x3eaf2380	0.34206772
19	0xbe8af6a8	-0.2714131

base.5linear.weight f4 [20, 20]
0	0xbeb13794	-0.34612715
1	0x3e926422	0.2859202
2	0xbe9600ce	-0.2929749
3	0xbdd87032	-0.105682746
4	0xbdf4fc62	-0.11962201
5	0x3d93f3e4	0.07224253
6	0x3e8fafea	0.280639
7	0x3de69907	0.112596564
8	0xbd9c50d0	-0.07632601
9	0xbea866a0	-0.32890797
10	0x3c10a0e9	0.0088274265
11	0xbe672024	-0.22570854
12	0x3ed6fed6	0.419913
13	0xbe0122d4	-0.12610942
14	0xbed13c37	-0.40866253
15	0xbefb7786	-0.49114627
16	0xbe424888	-0.18972981
17	0x3e90ec1d	0.2830514
18	0x3ec69db6	0.387922
19	0x3eecfed4	0.46288168
20	0x3e307c69	0.17234959
21	0x3ecf3dd4	0.4047686
22	0xbdf484f3	-0.119394206
23	0x3ec3b9ec	0.38227785
24	0x3ec1585d	0.37762728
25	0xbec66579	-0.38749292
26	0xbf1a2445	-0.6021159
27	0xbe549ade	-0.20762202
28	0x3ea8970e	0.32927746
29	0x3e462d55	0.1935323
30	0x3e179c8f	0.14805816
31	0x3f5220df	0.8208141
32	0xbe92ffdb	-0.28710827
33	0x3e39bf5d	0.18139406
34	0xbeee2684	-0.4651376
35	0x3f05a1f0	0.5220022
36	0x3ea5719d	0.32313243
37	0xbf4a7e3a	-0.79098856
38	0x3ecb1cd2	0.39670426
39	0xbd500d7b	-0.050794106
40	0x3d87843b	0.06617018
41	0xbe9ba211	-0.30397084
42	0x3f1fd664	0.6243651
43	0x3f04be56	0.5185293
44	0xbea7387e	-0.32660288
45	0x3efab1ab	0.48963675
46	0x3e98d974	0.29853404
47	0x3e027e50	0.12743497
48	0x3cbab236	0.022790056
49	0x3efb85b1	0.49125436
50	0x3e18e58b	0.14931314
51	0xbd42fc29	-0.04760376
52	0xbf177dff	-0.5917663
53	0xbd9bad77	-0.07601445
54	0xbea85f13	-0.32885036
55	0x3f8a5671	1.080763
56	0xbe1dc32a	-0.1540648
57	0xbe4e8415	-0.20167573
58	0xbe45a030	-0.19299388
59	0xbe8e638a	-0.27810317
60	0x3f220b9c	0.63298965
61	0xbd0bdfc8	-0.03414896
62	0x3776d760	1.47128885e-05
63	0xbe17ad7d	-0.14812274
64	0x3e79835b	0.24366514
65	0x3d15c17f	0.036561485
66	0xbe53d88c	-0.20688075
67	0x3d73ed72	0.059552617
68	0x3de6e6b5	0.112744726
69	0xbdbc9367	-0.09207802
70	0xbe4f025b	-0.20215742
71	0x3f1881b0	0.5957289
72	0xbd8bfa98	-0.06834906
73	0x3e1a783c	0.15084928
74	0xbe3fe2fe	-0.18738934
75	0xbe00ed4f	-0.12590526
76	0x3c2271b3	0.009914803
77	0x3e0a0dab	0.13481776
78	0xbd07843e	-0.0330851
79	0xbec37fbf	-0.381834
80	0x3e97e15b	0.2966412
81	0x3c9fac23	0.01949126
82	0xbe7862e8	-0.2425648
83	0xbeb95ae2	-0.3620215
84	0x3c3feecd	0.011714649
85	0xba50f09c	-0.0007970424
86	0x3f2e5749	0.68101937
87	0x3ebd4116	0.3696372
88	0xbdd603ff	-0.10449981
89	0xbee61d40	-0.4494419
90	0xbeb08dda	-0.34483224
91	0x3f72fe65	0.94919425
92	0x3f528caf	0.82245916
93	0xbed194a5	-0.4093372
94	0xbf5a3d5f	-0.85249895
95	0xbf3114a6	-0.6917213
96	0x3ecfae86	0.40562838
97	0x3e286135	0.16443332
98	0x3cbb29d1	0.022847088
99	0xbeb860b8	-0.3601129
100	0x3f45c1c9	0.7724882
101	0xbe28c799	-0.1648239
102	0x3eaef23b	0.34169182
103	0xbdbe8bc5	-0.09304003
104	0xbf4153b2	-0.75518334
105	0x3eaf4edd	0.34239855
106	0xbea7a50d	-0.3274311
107	0x3e0fa4d9	0.14027728
108	0xbe76424c	-0.24048728
109	0xbf3107e0	-0.6915264
110	0xbf04942b	-0.51788586
111	0x3eb54463	0.35403737
112	0x3d9f3c45	0.077751674
113	0x3dba5a13	0.090992115
114	0xbf13de9d	-0.57761556
115	0x3f25e4b1	0.6480208
116	0x3e34ccab	0.176562
117	0xbf1a3902	-0.60243237
118	0xbee22759	-0.44170645
119	0xbe491c85	-0.19639786
120	0x3f013082	0.5046464
121	0x3dd67c3a	0.10472913
122	0xbed85c4c	-0.42257917
123	0x3e93b612	0.28849846
124	0x3e5a8f61	0.21343757
125	0xbd344e92	-0.044020243
126	0x3e514338	0.20435798
127	0xbe88e323	-0.26735792
128	0x3d941527	0.07230597
129	0xbd82654d	-0.06366978
130	0x3f518cf7	0.8185572
131	0xbe572464	-0.21009976
132	0x3f00d5f0	0.5032644
133	0xbdfc8ef6	-0.12331955
134	0x3e36b780	0.17843437
135	0x3e6ca458	0.23109567
136	0x3b8e180e	0.0043363636
137	0x3ed24391	0.41067174
138	0x3e9d9bb8	0.30782866
139	0xbe62526e	-0.22101757
140	0x3ee21bd0	0.44161844
141	0xbd8f3c00	-0.06993866
142	0xbf0a79ab	-0.540919
143	0xbd4bd92e	-0.049767666
144	0xbc28ce89	-0.010303148
145	0xbf3f9ee4	-0.7485182
146	0xbe5f4c61	-0.2180648
147	0xbe6cae39	-0.23113336
148	0x3e7d3e75	0.24730857
149	0x3f3db86a	0.7410952
150	0x3f5a0422	0.85162556
151	0xbeaf9e4a	-0.34300452
152	0x3ef059da	0.4694355
153	0x3f07a82a	0.52990973
154	0xbc569b58	-0.01309856
155	0x3ed16523	0.40897474
156	0x3f2f79dc	0.6854532
157	0xbd85d916	-0.065355465
158	0x3e9cb2ee	0.30605263
159	0xbd89559f	-0.06705784
160	0x3e102f2a	0.14080492
161	0xbda807af	-0.082045905
162	0x3e831377	0.25600788
163	0xbdf7a8e9	-0.12092764
164	0x3f00d82f	0.5032987
165	0xbacb10b9	-0.0015492655
166	0xbd0d4b2e	-0.034495525
167	0x3ed9d717	0.42546913
168	0x3dc45798	0.0958702
169	0x3daf2f84	0.08553985
170	0xbe7c5c3f	-0.24644564
171	0xbeca36f1	-0.39495042
172	0x3d1a5c6b	0.037685793
173	0xbe600e35	-0.2188042
174	0x3f182088	0.5942464
175	0x3eba0847	0.3633444
176	0x3d9b7aaf	0.075917594
177	0x3de73a5c	0.11290428
178	0x3e053d51	0.13011672
179	0xbe48344d	-0.19551201
180	0x3e992cee	0.2991709
181	0xbdd25c07	-0.10271459
182	0x3f2910aa	0.6604105
183	0x398fcfa4	0.0002742979
184	0x3df3c2ee	0.11902414
185	0x3de88b7c	0.113547295
186	0x3e56b22f	0.20966409
187	0x3bfbedcb	0.0076882592
188	0x3e887cbd	0.26657668
189	0xbe685160	-0.22687292
190	0x3eba66bc	0.36406505
191	0x3e20cb4a	0.15702549
192	0xbc4704bb	-0.012147124
193	0xbf146d30	-0.57979107
194	0x3ea8c0b8	0.32959533
195	0xbda4deaa	-0.08050282
196	0x3e61ebeb	0.22062652
197	0x3dd4527b	0.103672944
198	0xbe3e82d1	-0.1860459
199	0xbf1d0caa	-0.6134745
200	0x3eb3947f	0.3507423
201	0xbe8eab24	-0.27864945
202	0xbd9077a4	-0.0705407
203	0x3eddc0ce	0.4331116
204	0xbe8354e4	-0.25650704
205	0x3e4ac1d9	0.1980051
206	0x3ebc9445	0.3683187
207	0xbe92ecba	-0.28696233
208	0x3f404a47	0.7511334
209	0x3dcdaa61	0.10042263
210	0x3f14eef6	0.58177125
211	0x3e3f479f	0.18679665
212	0xbef00d16	-0.46884984
213	0x3e78f777	0.2431315
214	0x3eab20c9	0.3342345
215	0xbf1032bb	-0.5632741
216	0xbf1944f1	-0.5987082
217	0x3fbcc4a0	1.4747505
218	0xbd88c1e2	-0.06677605
219	0xbf1b8061	-0.60742766
220	0x3c781e9d	0.0151440175
221	0x3e9efca5	0.31052127
222	0xbec111e5	-0.37708965
223	0x3c7d5491	0.015462057
224	0xbe0dd83d	-0.1385202
225	0x3e77da1a	0.24204293
226	0x3e8aeec0	0.27135277
227	0xbe04fa17	-0.12986027
228	0x3e00c971	0.12576844
229	0x3f67bcd3	0.905225
230	0xbf4021da	-0.75051653
231	0xbe9669f9	-0.29377726
232	0x3e03497d	0.12821002
233	0xbd020e64	-0.031752005
234	0xbf24d44d	-0.64386445
235	0xbd822ca6	-0.06356172
236	0x3f9c108f	1.2192553
237	0x3ea7565c	0.32683074
238	0xbe83d788	-0.25750375
239	0xbe766dc1	-0.24065305
240	0x3c4c0407	0.012452132
241	0x3dbc118b	0.091830336
242	0x3f1e9431	0.6194487
243	0xbeb1fe6a	-0.34764415
244	0xba70c881	-0.0009185151
245	0x3e0054b0	0.12532306
246	0xbe8514d5	-0.25992456
247	0x3ede3ccc	0.4340576
248	0xbebd41c0	-0.36964226
249	0xbeed6329	-0.46364716
250	0xbe37f4e7	-0.17964517
251	0xbda97971	-0.08275116
252	0xbe961c17	-0.29318306
253	0xbd20ce03	-0.039258968
254	0xbf2b0d92	-0.6681758
255	0x3ee01576	0.43766373

base.5linear.bias f4 [20]
0	0x3c9ceb2e	0.019155111
1	0x3d93f6be	0.07224797
2	0xbd104b46	-0.035228036
3	0x3d9942bc	0.07483432
4	0x3ef082c7	0.46974775
5	0xbe1f4994	-0.15555412
6	0xbe228c95	-0.1587394
7	0x3ebc6cd3	0.36801776
8	0x3de8fd41	0.11376429
9	0x3cbb768c	0.022883676
10	0xbe0a8d73	-0.13530521
11	0x3df69891	0.120408185
12	0x3eca4fcc	0.39514005
13	0x3ee408e2	0.44538027
14	0xbe85c08a	-0.26123458
15	0xbe0dbd72	-0.13841799
16	0xbe2aa05c	-0.16662735
17	0xbeea6551	-0.45780423
18	0xbda251eb	-0.07925781
19	0x3db80855	0.08985964

base.6linear.weight f4 [20, 20]
0	0xbef3d881	-0.47626117
1	0xbe42ffcb	-0.1904289
2	0x3ef45cf1	0.4772716
3	0xbe146128	-0.14490187
4	0x3eed39f1	0.46333268
5	0xbc832050	-0.016006619
6	0xbf3211a8	-0.6955819
7	0x3d184dd2	0.03718359
8	0x3cf854ed	0.030313933
9	0x3f678216	0.9043287
10	0x3e1e6acc	0.15470427
11	0x3dfa7e7a	0.12231155
12	0xbdf4cacb	-0.11952742
13	0xbd8d8124	-0.06909397
14	0xbd32c880	-0.043648243
15	0x3cb92b9a	0.022603799
16	0x3e8ca007	0.2746584
17	0x3df169f1	0.11787785
18	0x3cbd8ad3	0.023137486
19	0xbce8cfe0	-0.028419435
20	0xbe6c4dcb	-0.2307655
21	0xbdca18b3	-0.09867992
22	0xbf1ccd11	-0.61250407
23	0x3f42b991	0.760644
24	0x3ebf0324	0.37307084
25	0xbf8084ad	-1.004049
26	0x3ed7a3a7	0.42117044
27	0xbf2bc7e0	-0.6710186
28	0xbf5a4274	-0.8525765
29	0x3ed40045	0.41406456
30	0x3d6f710f	0.05845743
31	0x3d3376e4	0.043814555
32	0xbf3783a0	-0.7168522
33	0xbf09dbff	-0.5385131
34	0x3f215545	0.63020736
35	0x3cc3d50c	0.0239053
36	0x3db0b6c3	0.08628609
37	0xbedb972b	-0.4288877
38	0x3ef09278	0.46986747
39	0x3e8efce1	0.27927306
40	0x3ed69922	0.41913706
41	0x3ef34566	0.47513884
42	0xbe1e6121	-0.15466739
43	0xbf19620b	-0.59915227
44	0xbd8629d1	-0.065509446
45	0x3ea1e201	0.3161774
46	0x3ec36297	0.38161156
47	0xbe1af0af	-0.15130876
48	0xbe3f9d40	-0.1871233
49	0xbe6fb3b3	-0.23408394
50	0x3d8aaff3	0.06771841
51	0x3c80eefc	0.015738957
52	0x3ee5614c	0.44800794
53	0xbd154d96	-0.036450945
54	0xbf063d09	-0.5243688
55	0xbe567761	-0.20943977
56	0x3e0d890e	0.13821813
57	0x3e6a33db	0.22871344
58	0x3e206073	0.15661792
59	0x3de1d850	0.110275865
60	0xbde60005	-0.112304725
61	0x3eafa219	0.34303358
62	0x3dc3d692	0.095624104
63	0x3d9750c6	0.07388453
64	0xbf046e3c	-0.51730704
65	0xbde31a0d	-0.11088953
66	0x3f820fdf	1.0161093
67	0x3ea1d935	0.31611028
68	0xbeca7767	-0.39544222
69	0x3e4db99b	0.20090334
70	0xbdc4e46d	-0.09613881
71	0xbee75f20	-0.45189762
72	0xbf36c0d9	-0.7138801
73	0xbea81ace	-0.3283295
74	0xbddedea8	-0.10882312
75	0x3d6b4530	0.05743903
76	0x3d339f7d	0.04385327
77	0xbb8455bf	-0.004038542
78	0xbebded9d	-0.37095347
79	0x3dbb8486	0.09156136
80	0x3e40a016	0.18811068
81	0x3c69849c	0.014252808
82	0x3dd335ff	0.10313033
83	0xbeef8bb1	-0.46786264
84	0xbe678166	-0.22607955
85	0xbd5bbb29	-0.053645287
86	0x3ed3cb16	0.4136588
87	0xbe9140e7	-0.2836983
88	0xbec57e3e	-0.38572878
89	0x3db20007	0.086914115
90	0x3ef7fa40	0.48433113
91	0xbda016b0	-0.07816827
92	0x3d1a846c	0.037723944
93	0x3e22af77	0.15887247
94	0x3dbf63c0	0.09345198
95	0x3e9071b2	0.28211743
96	0xbed5a487	-0.41727087
97	0x3e4d0fb4	0.20025522
98	0x3d945474	0.07242671
99	0x3e8864ca	0.26639396
100	0x3ef51430	0.47866964
101	0x3d8d283d	0.068924405
102	0xbe050c2a	-0.12992921
103	0x3f71fd82	0.9452745
104	0x3dc536f3	0.09629621
105	0xbf0e2ba0	-0.55535316
106	0x3eefb200	0.4681549
107	0xbde4d418	-0.11173266
108	0xbe3d88bf	-0.18509196
109	0xbea49e94	-0.32152236
110	0x3e1dfb3b	0.15427868
111	0xbe1ce04d	-0.15319939
112	0x3da73d01	0.081659324
113	0xbe9732a3	-0.2953082
114	0x3d834f31	0.06411589
115	0xbe078b15	-0.1323665
116	0x3deaa1ca	0.1145664
117	0xbeb08550	-0.3447671
118	0x3e4725d4	0.19448024
119	0xbe24b6bf	-0.16085337
120	0x3ec80af9	0.3907087
121	0x3ec4be9e	0.3842668
122	0xbe0ed82e	-0.13949654
123	0x3e946e57	0.28990433
124	0xbefbce19	-0.49180678
125	0x3cc3118a	0.023812074
126	0x3e45bd6d	0.19310541
127	0xbe1b0f58	-0.15142572
128	0xbe21472d	-0.15749808
129	0x3ee0861c	0.43852317
130	0xbdcb20da	-0.09918375
131	0x3f26c829	0.6514917
132	0x3f0d1ad9	0.5511909
133	0xbd2d2792	-0.042274065
134	0x3e38e357	0.18055473
135	0xbe1b7222	-0.15180257
136	0xbf4bed5c	-0.79659057
137	0xbf68d644	-0.90951943
138	0x3ed6b058	0.41931415
139	0x3ee8b713	0.45452175
140	0x3eaf1e3d	0.34202757
141	0xbc8ea6f0	-0.017413586
142	0x3bd5b6cc	0.006522035
143	0xbe8526b7	-0.260061
144	0xbe02d1e3	-0.12775378
145	0x3f0d8014	0.55273557
146	0x3f16be95	0.58884555
147	0xbf2cca22	-0.6749593
148	0xbf65f366	-0.8982452
149	0xbee6efcb	-0.45104823
150	0xbf20b8a8	-0.62781763
151	0xbe1cf5cc	-0.15328139
152	0xbedecfc1	-0.4351788
153	0x3e3551e3	0.17707019
154	0x3e3d5f85	0.18493469
155	0x3ebbc3a4	0.366727
156	0x3ea82ffb	0.32849106
157	0xbcbf3d4e	-0.023344662
158	0xbeaaf973	-0.3339344
159	0x3e92caf8	0.28670478
160	0xbec4dac2	-0.3844815
161	0x3c856c58	0.016287014
162	0x3d914558	0.070933044
163	0xbdf73cb5	-0.12072126
164	0x3e9a9963	0.3019515
165	0xbe32cf52	-0.17461899
166	0x3e68b808	0.22726452
167	0x3d5cff57	0.05395445
168	0x3c0f3170	0.008739814
169	0x3b2de577	0.0026534477
170	0xbeb18056	-0.34668225
171	0x3ed0abf3	0.40756187
172	0x3edf0305	0.4355699
173	0xbeeb871d	-0.4600152
174	0xbd7b62bc	-0.061373457
175	0xbf243296	-0.6413969
176	0xbf0c5a35	-0.54825145
177	0xbe707bf5	-0.23484786
178	0x3f5aa691	0.8541041
179	0x3e0fe0cd	0.14050598
180	0xbe7bcbfd	-0.24589534
181	0x3f8144eb	1.0099157
182	0x3e640e3e	0.22271058
183	0xbe15c998	-0.14627683
184	0xbdbf155a	-0.09330244
185	0x3f2fa01c	0.6860368
186	0x3ea4ac29	0.32162598
187	0x3e41f60a	0.18941513
188	0x3e8644ee	0.26224464
189	0xbeca4f19	-0.39513472
190	0x3e4be96f	0.19913267
191	0xbda26262	-0.07928921
192	0xbf151070	-0.58228207
193	0xbe3cc6a6	-0.18435153
194	0x3dce483e	0.10072373
195	0xbdb1f052	-0.086884156
196	0x3e847781	0.25872424
197	0xbee83d7c	-0.4535941
198	0x3e3f4017	0.18676792
199	0x3e81ef73	0.25377998
200	0xbee89fcf	-0.45434424
201	0xbea6930e	-0.3253407
202	0x3ea64f38	0.32482314
203	0xbe610403	-0.21974187
204	0x3eddab7f	0.43294904
205	0x3dad221d	0.08453772
206	0xbca486d1	-0.020083817
207	0xbdfdab19	-0.1238615
208	0xbf195712	-0.59898484
209	0xbe1a50d3	-0.15069894
210	0xbecaeabf	-0.39632222
211	0x3db34900	0.08754158
212	0x3e162995	0.146643
213	0xbdbada80	-0.09123707
214	0x3e4ba32d	0.19886465
215	0xbdba06d3	-0.09083333
216	0xbf063f59	-0.5244041
217	0xbe89e658	-0.2693355
218	0xbdd46192	-0.103701726
219	0x3e917a5c	0.28413665
220	0xbe80aba7	-0.2513096
221	0xbea1321a	-0.31483537
222	0xbeeddf97	-0.46459648
223	0xbea2dd38	-0.31809402
224	0x3e7ad4fd	0.24495311
225	0xbdd866a6	-0.10566454
226	0x3e4f2b4f	0.20231365
227	0xbe0cf556	-0.13765463
228	0xbe23829a	-0.1596779
229	0x3ef786b5	0.4834496
230	0x3daceedb	0.084439956
231	0x3f16bc65	0.5888122
232	0x3f28f76d	0.6600254
233	0x3f38792c	0.72059894
234	0xbec06f60	-0.37584972
235	0xbe5bed1b	-0.21477167
236	0x3ed233b8	0.41055083
237	0x3e8d43ab	0.2759069
238	0xbea691d3	-0.3253313
239	0xbe70db98	-0.23521268
240	0x3d89c2ba	0.06726594
241	0xbf043660	-0.5164547
242	0x3e7630ae	0.24042007
243	0x3ed17326	0.40908164
244	0x3e852d5f	0.26011178
245	0x3f0621d1	0.5239535
246	0xbe3a1058	-0.18170297
247	0xbeb7b360	-0.3587904
248	0x3e1fe0f2	0.15613154
249	0x3e568840	0.20950413
250	0xbee2c4b2	-0.44290692
251	0x3e7aef62	0.2450538
252	0x3f23b870	0.63953304
253	0xbec20aa2	-0.37898737
254	0xbd29d229	-0.04146019
255	0xbf492a29	-0.78579956

base.6linear.bias f4 [20]
0	0xbdeb535d	-0.1149051
1	0xbe8851b6	-0.2662484
2	0x3e1b0aeb	0.15140884
3	0xbc22e3dc	-0.009942021
4	0x3efb9176	0.49134415
5	0xbe4fb2cf	-0.20283054
6	0xbd2190c3	-0.039444696
7	0x3daadb32	0.083425894
8	0x3e8b9b02	0.272667
9	0xbe99f116	-0.30066746
10	0xbeeba7a5	-0.4602634
11	0x3d6c337e	0.057666294
12	0xbdc60cb8	-0.09670395
13	0x3e1add13	0.15123396
14	0xbf30cf37	-0.69066185
15	0x3e577e35	0.21044238
16	0xbe6bc8d9	-0.23025836
17	0xbc47abf3	-0.012186992
18	0xbeb8bb16	-0.36080235
19	0x3e8590ea	0.26087123
