NS_model_train.pt (torch, 18345 bytes, 18 tensors)

base.0linear.weight f4 [20, 3]
00000000: 93f0 4ebc ec0c ddbc e1ef 10bd b159 80bd
00000010: 3815 843e a4df 6cbe 3939 883e 4876 2ebe
00000020: 8e90 b2be 2083 5c3d 7ba5 a13e 9e25 aa3d
00000030: cfca 4e3f 3a9f a13d 85db 9d3a 2831 babd
00000040: c321 80be 7f2b 773d 6a1c 03be 7a3d c3bd
00000050: 6132 0d3e 71f6 ed3e 1b50 19bc 5dad ebbe
00000060: 144d 2b3d fd28 babc dac9 52bd 7115 583e
00000070: 1170 bf3e 4c07 7bbd 6305 ce3e 0394 7f3e
00000080: ace1 bcbe 2f21 5a3c 3dec 06bf 0547 bcbb
00000090: 423a 31bb 31b6 81be 758b 06bd 5755 8abc
000000a0: 23fc 38be 81b8 d8bc 434e 1fbd 9057 833e
000000b0: 958f 053c ce3c 36be eeb3 083d e851 c43d
000000c0: faf0 92be 35b0 4f3f 24e6 a6bc 05b0 bcbe
000000d0: 75ca 5b3e b0fc 4fb8 3cf5 b2be 7e89 873b
000000e0: 284b 953e 99dd 13be c861 9d3d 76e4 4c3e
-0.0126306 -0.0269837 -0.035385016 -0.06267107 0.2579744 -0.23132187 0.26606157 -0.17037308
-0.3487591 0.053835988 0.31571564 0.08307956 0.8077821 0.07891698 0.0012043571 -0.09091407
-0.25025758 0.060344215 -0.12803808 -0.0953321 0.1378875 0.46477082 -0.009357478 -0.46030703
0.041821554 -0.022724623 -0.051462032 0.21101929 0.37390187 -0.061286256 0.40238485 0.24958806
-0.36890924 0.013313576 -0.5270422 -0.005745771 -0.002704278 -0.25334314 -0.03284784 -0.016886396
-0.18064933 -0.026455166 -0.038892996 0.25652742 0.008151908 -0.17796633 0.03337472 0.09585935
-0.28699476 0.81128246 -0.020373411 -0.36853042 0.2146395 -4.958798e-05 -0.34952724 0.0041362634
0.29158902 -0.14440002 0.07684666 0.20009026

base.0linear.bias f4 [20]
00000000: 0970 803e 8f87 cb3d 1998 903f 85fa 91be
00000010: 2906 7abc c2cb e0bd 2011 12be d123 05c0
00000020: c0db a93e b31a 983e d327 7d3f 34e2 4abe
00000030: 1720 803e b136 673e eccf f33d bcf1 e43d
00000040: b3b5 183e ad8c 0a3f 735b c6bf bc4b c33e
0.25085476 0.09937965 1.1296417 -0.28511444 -0.015260258 -0.10976364 -0.14264345 -2.080311
0.33175468 0.2970787 0.9888889 -0.19812852 0.25024483 0.22579457 0.11904892 0.1117892
0.14913063 0.54120904 -1.5496658 0.38143718

base.1linear.weight f4 [20, 20]
00000000: 4e6d cdbb 392c 1cbe 7e8b 993d b76e 63be
00000010: 5839 be3d ecc6 d33e 762c afbe d42e 5d3e
00000020: 9793 df3d 697c aebe 8106 75bd 0daf 76bd
00000030: c9a5 d2bd 995f 08bd 2f93 c9bc 5228 653e
00000040: 8533 06bf 00f4 8e3e 6efa 53be dd41 af3e
00000050: 0f3a 9f3d a0e0 d3be b4a3 49be e82d 55be
00000060: 6234 8bbe 6ff9 22be b0f1 7bbe cfe8 dd3e
00000070: 4b13 25be a167 1639 0c78 473e 17c9 803c
00000080: 57da 73be cdbf 723d 7438 1dbf 8899 b0be
00000090: d390 a23e 6cb2 adbe 9c0c 80bd 798d d5bb
000000a0: d9c8 0c3c 8992 fb3a 0183 18bc ffd5 3bbe
000000b0: 96eb d4bd 082f 1a3e f415 b93e c7d9 0dbf
000000c0: 4ea5 293e 789c 6cbe 7ad2 20be 48e1 b13d
000000d0: 5a61 493e a243 3e3e 808c 8c3d 538c a63e
000000e0: 2625 31be df71 f73e 9bbe 67be cf1c ee3e
000000f0: 2c36 6c3d d41c af3d d948 c4be 1f0c 45be
00000100: 5737 643d 1648 21be d1e7 9ebd 708b dcbd
00000110: 5db4 8cbe dc1b f7be 78ef dcbe 03a8 bb3c
00000120: da8d c3be c3af 3cbe cd6e 273e 602d 223f
00000130: b420 283e 2883 3e3e 087a 49bf 3bf8 29be
00000140: 9a46 e8bc c459 54bd 20bb 4bbe 9493 86bd
00000150: 7479 0d3e 6421 423f 8d92 283e 9733 143f
00000160: 27e1 103e 2035 ca3e 95e9 52be 7496 44bd
00000170: b9fa a03e 2718 193e b972 81be 7737 8cbd
00000180: 8466 b6bc dc5b 183e 8d1e 82be 2a68 bc3e
00000190: 7b00 99bd 0450 9f3e c175 013d 052d 48be
000001a0: 536a fabb 8030 c73e 1e6d f73d 4bb7 2f3e
000001b0: f204 693e 2d0c b83d aef7 eebd 78d6 88bd
000001c0: 7535 093f b30c abbd 57b7 aabe c8c1 8dbe
000001d0: ba0d bc3e 5448 093d dc24 85be 227a 7e3d
000001e0: 0c31 f0bd 3e79 36be 9a71 bdbd 940a 4ebe
000001f0: 156f 1ebe ac13 c63d 7684 8e3e 9e33 88bd
00000200: 2630 0b3e 2bf4 7cbe c4f9 0b3e 22f3 a93e
00000210: daeb 363e b0ad ec3c 45e7 7dbe b36d 40be
00000220: 936d 97be 3ba3 8ebe 7578 0c3f 8d05 8a3e
00000230: 3834 3bbd f1a7 963d d2d6 cc3d 5e48 b1bd
00000240: 96a2 b1be 490f ba3e feed bf3d fec9 74be
00000250: 7d38 483d 4834 813e 7271 573e 9f56 c23e
00000260: 181b 1d3f d1b8 213e 85de 0ebe 563b 0abb
00000270: 8b6b 2b3e 31b5 cdbe 7e06 203f cadb d23d
00000280: 8fea 1b3e 7b36 b83d 6878 ae3e 0d95 05be
00000290: 1c3f 4a3e f6e9 1b3e cf56 1d3d 5776 543d
000002a0: 8071 3ebe 2f85 19be f4b9 d1bd 8b50 143d
000002b0: 2596 ca3c 87c7 903e 7d6e 933e d625 88ba
000002c0: 7333 40bd 47e9 7d3e 018c 403f 6ea9 023e
000002d0: e2d8 37bf 8cea 943e 00b9 2a3f d08d 30be
000002e0: 8e78 79bd 72cb 2ebe e497 aabe 4e19 6dbe
000002f0: 796b 973e 7596 debe 125a a73d 48a2 2e3f
00000300: 399b bdbe 23e6 a53c 6782 b6be fe55 95be
00000310: c9af 5a3e d581 4a3d 577c 0b3f ab68 82bf
00000320: 2d4d 35bd bba1 81be 1d57 4e3e e38b 40be
00000330: b8fb 773c df5f b03c 1dc9 e9bc 889b f13d
00000340: fd8d 4cbe 628c 32bd d76f ac3d 538a 1b3e
00000350: c007 bd3e 4bef afbd aa03 2abe e218 34bf
00000360: 841a 833d ddf5 823e 8da0 f33e 8898 acbe
00000370: c4c1 2c3c bc25 1fbe dde8 cabe 1b62 f43d
00000380: a669 35be 6040 06bf 7168 85bd a9a1 c23e
00000390: b09c 3c3f 3a38 3fbd c3c0 56be eabd 55be
000003a0: c4c8 4b3d f86b 543e 6fcd ff3e c614 5dbe
000003b0: 2d2e ec3c 4896 303f 5e73 913e 8a81 793e
000003c0: d0a9 163f 8312 903e 45f5 953d be05 8abe
000003d0: ecb0 3a3e 21ab 2b3e 046f 4c3e 0f47 41bf
000003e0: 5c50 ad3e e981 263e 50af 5abe 01ea 163e
000003f0: 431a 15bd 7752 9f3e a88a e53e 994f e0bd
-0.0062691336 -0.15251245 0.07497309 -0.22210203 0.09288281 0.41362703 -0.34213609 0.21599895
0.109168224 -0.34079292 -0.059820656 -0.060225535 -0.10285527 -0.033294294 -0.024606315 0.22378662
-0.5242236 0.27920532 -0.20701 0.34229937 0.07774746 -0.41382313 -0.19691354 -0.20818293
-0.27188402 -0.15915464 -0.24603915 0.4334168 -0.16120641 0.0001434372 0.19479388 0.015720887
-0.23813759 0.059264947 -0.61414266 -0.34492135 0.31751117 -0.33925188 -0.06252405 -0.006517109
0.008592808 0.0019193451 -0.0093085775 -0.18343352 -0.10396497 0.15057003 0.3614956 -0.55410427
0.16566965 -0.23106563 -0.1570529 0.08685547 0.19666043 0.18580487 0.06862736 0.32528934
-0.17299327 0.48329064 -0.22631304 0.46506354 0.05766885 0.085504204 -0.38336828 -0.19242905
0.05571684 -0.15750155 -0.07759059 -0.10768783 -0.27481356 -0.48263443 -0.4315145 0.022907263
-0.38194162 -0.18426423 0.16350861 0.63350487 0.16418725 0.1860472 -0.7870183 -0.16598599
-0.028353978 -0.05184342 -0.19895601 -0.06571117 0.13815862 0.758322 0.16462155 0.5789122
0.14148389 0.39493656 -0.20596917 -0.047995046 0.31441286 0.1495062 -0.2528284 -0.068465166
-0.02226568 0.14878792 -0.25413933 0.3679822 -0.07470795 0.31115735 0.03160644 -0.19548424
-0.0076420694 0.3890419 0.12081359 0.17159764 0.22755793 0.08986697 -0.11668335 -0.06681532
0.53597194 -0.083520316 -0.33343002 -0.27686906 0.36729223 0.033516243 -0.26004684 0.062128194
-0.11728105 -0.17819688 -0.092501834 -0.20121223 -0.15472062 0.09671721 0.27835435 -0.0665047
0.13592586 -0.24702518 0.13669497 0.33193308 0.17863408 0.028891414 -0.24795254 -0.18791847
-0.29575786 -0.2785891 0.548713 0.2695736 -0.045704097 0.07356251 0.10001911 -0.08656381
-0.34694356 0.36339787 0.09371565 -0.23905179 0.048881996 0.252352 0.2103937 0.37956712
0.61369467 0.15793158 -0.13952072 -0.0021092496 0.16740243 -0.401773 0.62509906 0.10295828
0.15226196 0.08994766 0.34076238 -0.1304514 0.19750637 0.15225968 0.038412865 0.05187067
-0.18597984 -0.14992212 -0.10240546 0.036209624 0.024729798 0.28277227 0.28795233 -0.0010387253
-0.046924066 0.2479602 0.7521363 0.12759945 -0.7181531 0.29085195 0.6668854 -0.17241597
-0.060905986 -0.17069796 -0.33319008 -0.23154184 0.29574183 -0.43474165 0.081714764 0.6821637
-0.37032488 0.02025134 -0.35646364 -0.2916717 0.21356119 0.049440224 0.544866 -1.0188192
-0.044263054 -0.25318703 0.20150419 -0.18803363 0.015135698 0.02153009 -0.028538281 0.11797243
-0.19976039 -0.04359091 0.08419769 0.15189485 0.36919975 -0.085905634 -0.1660296 -0.7035047
0.06401542 0.25578204 0.47583428 -0.33710122 0.010544244 -0.15541738 -0.39630786 0.11932775
-0.17716083 -0.5244198 -0.06514061 0.38013962 0.73676586 -0.04668448 -0.2097197 -0.20873228
0.049752012 0.20744312 0.4996142 -0.21589956 0.028830612 0.6897931 0.2840833 0.24365821
0.58852863 0.28139123 0.07322172 -0.26957506 0.18231553 0.16764499 0.19964224 -0.7549905
0.33850372 0.16260494 -0.21355939 0.14737703 -0.036402 0.31117603 0.4483235 -0.10952682

base.1linear.bias f4 [20]
00000000: 7ef9 1a3d e354 953d d4c3 b33d 5af1 5fbd
00000010: 7f07 16bd 01ea acbb a462 cdbc 171d 44bd
00000020: 5e15 6abd 6faa 9ebe 6fc7 f13d d846 d93d
00000030: df58 b039 13ed a63d 09a8 1bbc 507b 66bd
00000040: b8c5 87be 7e15 38bc 3d22 473d 2ac4 783d
0.03783559 0.072915815 0.087775856 -0.05467353 -0.036628243 -0.005276919 -0.02507145 -0.047879305
-0.057149284 -0.30989406 0.11805617 0.106092155 0.0003363555 0.08150687 -0.009500512 -0.056269944
-0.26518035 -0.011235593 0.048616637 0.06073395

base.2linear.weight f4 [20, 20]
00000000: d84e 103c 5090 9a3e f4e3 4c3f a439 96be
00000010: f7d6 c13e 605b c33d 4fdc fabc 08d6 d0bd
00000020: 361e 2e3e 593a 2fbe e9df 34be b52f 7fbe
00000030: 92a9 9b3d 6d0b 273c f9ac 4b3e b795 37be
00000040: 6b03 edbc f9ad 603c 09b1 55bd e473 fdbe
00000050: 3a3b 903d dd54 febd 8d87 abbe 7544 1cbf
00000060: b4b8 bbbe a513 943e fd44 9a3e 1e77 3b3e
00000070: e118 303f 4fa0 0fbd 5faa 333f 1990 89be
00000080: a2ec d9be aed0 0cbf 313f 2bbd a9f9 a1be
00000090: a8a7 063e be4e 33bc 6735 4cbe 4e5f 3f3e
000000a0: bdf0 c8bd 1843 023d 1b98 90bd 27bf abbd
000000b0: 2b88 ba3e 85c3 3e3d afe8 8ebe a3cb 3b3f
000000c0: 643f 87be f76b b6bb 11a8 4fbe 8f06 d23d
000000d0: f207 81be 49eb ecbe 5987 cb3e 2a43 0f3e
000000e0: 06e4 b53d 3284 a2be a270 07be 595f 9ebe
000000f0: c9d0 893e 20fa ed3e 559a 113e 9fce 123f
00000100: c941 1ebf 7c1c 2bbe e8bc cdbd 98fb 34be
00000110: d359 013f 93bd 8f3e c6da b3bd 25d4 7e3e
00000120: 17ac bbbe 0d45 9b3e 3ec4 4cbd d9cc 4b3f
00000130: 441b 9e3e ff86 b5be 2c70 503e f621 ec3d
00000140: f4cb 003f a340 90bc 9144 e4bd 036f c23c
00000150: f0b2 253f fc1b 103d 3abd 5c3e aab0 553f
00000160: 5637 5bbe 7a83 ec3d 0104 313f c946 313e
00000170: 24fc 56bd 88b3 1dbf 4310 063f b423 ba3e
00000180: b110 5cbd 5210 08be 2d20 703d 0607 e23d
00000190: 8a1f 2bbe 5700 13be 7542 fa3d b56d d63e
000001a0: 6290 913e eab0 153e f7c6 13bf eeee 50be
000001b0: f22c 86be db6e 373e 651e d43d eeb4 a73e
000001c0: 2f22 dbbe 4c6f 00bf ecdf 573e 7289 d43d
000001d0: 3188 2d3f 2597 b3be 649f 80be 26d7 963e
000001e0: 26a1 f03e 4e8b 65be 0864 9b3e e36d b43e
000001f0: 86c8 6b3d 6676 8d3e 617b ae3e dde9 0d3e
00000200: 7b31 bfbd e334 9e3d e7c9 e2bd a26a cabe
00000210: 5efb 363d 2474 a43e f2f9 1cbf f347 d53e
00000220: c151 1cbe 43bc 293f d66d aabd 48c2 88be
00000230: cd50 1b3e def3 923e edf4 1e3e abc3 4abd
00000240: d67c 8bbe f301 d73e 0325 6a3e db14 c93d
00000250: e5ac 783d 477c 77be 6c96 ea3e 8aed 593e
00000260: 84c6 813e 3dcc ac3d 13d2 ecbe 0df3 79be
00000270: 90dc c23c 867e f8be 004c 23be ad44 aa3e
00000280: 81b5 703e bc1f fabd a78f c83d 0ae9 d0be
00000290: c814 2fbe 827b 503e be7a b23e d1ef f13d
000002a0: 146a 243f 04b1 15be f0a8 c73e f1af f83e
000002b0: b362 793e b7ff 123e c26e 95bd 286b 0bbf
000002c0: 2af0 a13e 8a79 a6be ddec 4bbe 29d8 71be
000002d0: e3a5 e3bd c25b 6abe d947 bdbd 3def 093e
000002e0: 98c9 44be 5207 033e adf5 40bd ed50 173f
000002f0: 4e08 fbbe 1992 19bd cb8f a2bd c0f6 dd3d
00000300: 7c29 16bd cc9b c93d 3514 52be aed5 e8bd
00000310: 5115 2fbb ddad 1a3f 7d1a 243e 8607 03be
00000320: 630b 3a3e 21d5 0dbf 2217 8d3e fbd7 f7be
00000330: 155c 083f 56f5 3cbd a386 39be d83a d73e
00000340: 5fa9 30be 6b4b 03be f64a 06be d36f 8abe
00000350: 27d5 07bf 2a2d 3d3e 4265 823d a970 90be
00000360: 74cd 35be b5bc b13e 8f45 b83e ed53 23be
00000370: 593b ff3c 185f 3b3d b33d dfbc 19e8 a73e
00000380: f6fd 8bbc f53f b1be debb b5be c8e4 d73d
00000390: 5ff2 80be ddce 96be 3c3b b5bd 1366 bb3e
000003a0: 4757 013f 101c c4be 92f9 4f3f bfa1 2d3e
000003b0: 0535 18bc 9663 743e ac2f c83e 97e9 963d
000003c0: 20e4 86bd 509d 053e 9348 ad3d cbf2 11bf
000003d0: 6c03 88be d211 883d 6bfe 1a3f b303 623e
000003e0: 3035 24be cfac 41be 759c 203e e6b6 2c3f
000003f0: 2067 28bd 83a3 ca3e df64 9a3e e26c 41be
0.00880786 0.30188227 0.8003533 -0.2934085 0.37859318 0.09538913 -0.03062263 -0.10197073
0.17003712 -0.17112102 -0.1766354 -0.24920543 0.07600702 0.010195595 0.19890203 -0.17928205
-0.028932294 0.013713353 -0.052170787 -0.4950248 0.070425466 -0.1241853 -0.33501855 -0.6104196
-0.36664355 0.28921238 0.3013076 0.18307158 0.6878796 -0.03506499 0.7018184 -0.2686775
-0.4256335 -0.5500592 -0.04180831 -0.31635788 0.13149893 -0.010944067 -0.19942246 0.186887
-0.09811542 0.031802267 -0.07060262 -0.08386069 0.36432013 0.04657318 -0.27911898 0.733576
-0.2641555 -0.0055670696 -0.20278956 0.10255157 -0.25201374 -0.46273258 0.397517 0.13990465
0.08881383 -0.31741482 -0.1322656 -0.3093212 0.26917103 0.46479893 0.14219029 0.5734653
-0.6181913 -0.16710085 -0.10045797 -0.176741 0.50527686 0.2807432 -0.08781962 0.24885614
-0.36654732 0.3032612 -0.04999184 0.7960945 0.30880177 -0.35454556 0.2035529 0.11529915
0.5031121 -0.017608946 -0.111458905 0.023734575 0.6472616 0.035182938 0.21556559 0.8347269
-0.21407828 0.11548515 0.69146734 0.17312159 -0.052486554 -0.6160207 0.52368563 0.36355364
-0.053726856 -0.13287476 0.058624435 0.11036496 -0.1671125 -0.14355598 0.12219707 0.41880575
0.28430468 0.14618269 -0.5772547 -0.20403644 -0.26206166 0.17913382 0.1035736 0.32755226
-0.42799518 -0.50169826 0.21081513 0.10377778 0.67785937 -0.35076252 -0.25121605 0.2946102
0.46997947 -0.22416422 0.30349755 0.35240087 0.05756428 0.27629393 0.34078506 0.13858743
-0.093356095 0.07724931 -0.11073666 -0.3953448 0.044673316 0.32119858 -0.61318886 0.41656455
-0.15265562 0.6630289 -0.08321731 -0.26710725 0.15167542 0.2870168 0.1552312 -0.04950301
-0.2724368 0.41993675 0.22865681 0.09818431 0.06071176 -0.24168502 0.45817888 0.2128202
0.25346768 0.08437393 -0.46254024 -0.24409123 0.023786813 -0.4853403 -0.1594696 0.3325552
0.23506738 -0.12213084 0.097930245 -0.40802795 -0.17097771 0.20359614 0.3485927 0.118133195
0.6422436 -0.14618307 0.38996077 0.48571733 0.24354057 0.1435536 -0.07296516 -0.5446038
0.31628543 -0.32514602 -0.19914575 -0.23617615 -0.11115625 -0.22886565 -0.092422195 0.13470168
-0.19217527 0.12795761 -0.047109295 0.5910786 -0.49029773 -0.037492845 -0.079375826 0.108380795
-0.036660656 0.09844169 -0.20515521 -0.11368881 -0.0026715586 0.60421544 0.1602573 -0.12795839
0.18168406 -0.55403334 0.2755671 -0.48406968 0.53265506 -0.046132408 -0.18117766 0.42037082
-0.1725211 -0.12821738 -0.13114533 -0.2703844 -0.5305962 0.1847426 0.0636697 -0.28210953
-0.17754155 0.34714285 0.3599057 -0.15949984 0.031156229 0.045744985 -0.0272511 0.32794264
-0.017088871 -0.34619108 -0.35494894 0.105416834 -0.25184914 -0.294547 -0.08849189 0.36601314
0.505238 -0.3830266 0.8124019 0.16956232 -0.009289985 0.23866114 0.3909887 0.073687725
-0.0658648 0.13048291 0.08461108 -0.570111 -0.2656511 0.06644024 0.6054446 0.22071724
-0.16035914 -0.18913577 0.15684684 0.6746658 -0.041113973 0.39577875 0.30155084 -0.18889192

base.2linear.bias f4 [20]
00000000: c37c 03bd e2f0 c23c f3b9 e1bd dcad abbd
00000010: 3025 453e 450c 6b3e 6ddd 7b3d 9be2 0bbd
00000020: c6a2 2d3d 6857 043e 7c50 593c 025f 463e
00000030: e13d dd3c 561d 84bd c8d2 23bd 4add 8ebb
00000040: a27d 1d3d 68fb 143c 4e7e 19bd 1ef0 81bd
-0.032101404 0.023796503 -0.11021795 -0.083827704 0.19252467 0.22953899 0.061490465 -0.034151655
0.04239156 0.12923968 0.013263818 0.1937218 0.027007045 -0.06450908 -0.03999594 -0.004359876
0.03844989 0.009093143 -0.03747397 -0.06344627

base.3linear.weight f4 [20, 20]
00000000: ea11 783c d4d7 85bd 338f f33e 31b3 6dbe
00000010: 1930 3dbd 785e 803e 937a 43bd 099c 513e
00000020: 1625 84be ee6f e63d 24f2 a0bd b8f0 d13e
00000030: 2cfa 03bf c7e8 afbe 2d8c ae3e ff43 afbe
00000040: e80e 153d c7de a73e 8fd0 fa3e 2de3 903e
00000050: 77ba d2be decb 923f 2315 673e 097d 213f
00000060: 5eae b0bd c71a 96be 2c2b 9fbd b450 943e
00000070: 910a 163d fae7 e7be 3898 c4be cccf fcbd
00000080: c34a 243e 9b08 1b3f 1bc5 163b f77b 1bbe
00000090: b543 ce3e ef07 c23d 3437 23bf d1d3 3d3d
000000a0: 256c 74be 205a 2b3e a0b9 d1be 6576 b83c
000000b0: 33b4 373e f744 7dbe 8dec 853e 90cb 17bd
000000c0: 7e7b 17bf e19f 5cbe 7899 f43e 430b e6be
000000d0: cd83 b4bd c85c a5be 94f9 2f3e 60a9 3c3e
000000e0: 64a8 9b3e a884 9bbe 52ac 4e3f 2dc4 a2bc
000000f0: 3434 89be d6e4 9abe 0bb8 f4bd 79b8 03be
00000100: e7da 003f 39a8 45be 3d31 5bbe 90fb 0a3e
00000110: 0b63 ed3e 8f28 453d 98fd 82be 0a00 bd3d
00000120: f403 b63e 109e 613e bfe7 0a3f 49f4 0e3f
00000130: 8364 ae3d 38fa 993d 2a30 843d 2f2b cf3e
00000140: 2560 06be af52 733e f2e9 e03e 73ba d1be
00000150: 46d0 383f a86d f8be e733 34bf e848 49be
00000160: 4ed8 e5bd c33d 36be cf4d 9d3e 0b41 073f
00000170: 16b6 6b3d 0a3a 673e 8cf1 383e d1a9 b43e
00000180: 21e2 55be a360 3b3e 3138 553d 3523 8abe
00000190: 2715 2f3f cee3 96be 05f0 403f 9671 86be
000001a0: 14b1 0b3f 633d 8d3e 38f5 73be f88a f8be
000001b0: b756 643e b5a1 943d f211 5d3e 2e34 a2be
000001c0: 3a41 cc3e bf22 b13d a508 1e3f 4471 8e3d
000001d0: c17c febe 14a8 2e3d 2c3a a8bd 7cad eabd
000001e0: 5453 d3bd 6745 f1be 36bf 473d 1862 9c3c
000001f0: 92f0 0e3d c898 3a3e d6f4 123e 0ccb 11be
00000200: 9f5e 43bf 8f7d 083f 8e21 553d 49cc 4dbe
00000210: b261 a5be 7c92 9ebe ce89 32be 7168 fcbe
00000220: 5da5 9dbd 1601 2fbd a55b 853f 2e41 83be
00000230: 2238 233f 08c8 12bf 443d 773e 31bf 563d
00000240: c722 e4be 43a4 b83d 69f1 f3be 1ba2 d13e
00000250: e615 aa3e 7d69 44bc 2965 d73e cbad b43e
00000260: 4a88 853e 095b 2f3e 4341 80be 42f7 813e
00000270: 2152 743e 1d2b cb3e 61ed 193f b647 febe
00000280: bf1d 0e3e dcec f23e 3082 063f c110 2bbe
00000290: bc23 c13e 9a07 e1bc c4a7 3fbe e9b3 913d
000002a0: 514d 843e 3ebd cbbe fab6 11bf c07c 9dbe
000002b0: fc72 aebd 4beb d33e 004e 91be 894e 2dbf
000002c0: ac62 65be 7e80 0dbf 8294 c4be 307e 0abe
000002d0: 2154 50be 25a6 50be a17f acbd 5672 bebe
000002e0: f5d7 f2be 2a6a ebbe 5755 79be 6f71 18bf
000002f0: b9a0 13be 620c 40bd 1869 713d bbe1 fc3e
00000300: 86da 3d3e a385 24bd 96c7 b0be 1b53 00bd
00000310: 4464 9e3e 3c6c 8abe 8c8f 4a3e 71bd 6a3e
00000320: 2cec b23d eed3 1bbf 488d 103f d542 9cbe
00000330: 6cfd b9be 8e46 b03d 6351 5c3c 213d 1c3f
00000340: 4186 2a3e 8640 18ba aeb5 13be 46b7 ddbd
00000350: 0f7b 123f e3bc bd3e 9d7a f2bd d405 e2be
00000360: 911f 08be 4c29 fb3d fa80 12be 9c54 9abe
00000370: f3d0 393d c2fe d4bc 03ee debe 76bf 8e3e
00000380: 845f 743e 6fd7 ffbe 9624 703e 27ab 923d
00000390: d78b 2bbe e784 433e ebf9 d6be 39d9 293e
000003a0: 419f 20be b614 9c3e d14b 31be b0fa 003c
000003b0: 1746 03be 68a5 8cbe e529 c9be 89df c4be
000003c0: 01d5 96bd ca14 22be d145 fa3d f5db 183e
000003d0: 6b6c edbe d918 27bc 41e9 acbd 255f 7ebe
000003e0: 7974 923e b358 b4be 9f2b dbbd 8f49 49be
000003f0: ea2a 28bf 037c cbbe 547a c9be dae5 24bc
0.01514099 -0.065353066 0.4757019 -0.23212887 -0.046188448 0.25072074 -0.047724318 0.20469679
-0.25809544 0.11251818 -0.07858685 0.41003966 -0.51553607 -0.34357283 0.3409132 -0.34231564
0.03639117 0.32787153 0.48987243 0.2829832 -0.41157886 1.1468465 0.22566657 0.63081414
-0.08627008 -0.29317304 -0.07771906 0.28967822 0.03663117 -0.45294172 -0.38397384 -0.123443216
0.16044144 0.60560006 0.0023005668 -0.15184008 0.4028603 0.094741695 -0.6375611 0.046344582
-0.23869379 0.16733599 -0.40961933 0.022517392 0.17939834 -0.24733339 0.26157036 -0.037059367
-0.5917281 -0.21545364 0.47773337 -0.44930467 -0.088142015 -0.3229735 0.1718505 0.18423986
0.3040191 -0.30374646 0.8073169 -0.019868935 -0.2679764 -0.30252713 -0.11949166 -0.1286334
0.5033402 -0.19302453 -0.21405502 0.13572526 0.46364626 0.048134383 -0.25584102 0.09228523
0.3554989 0.22032952 0.54259866 0.558415 0.08515265 0.075184286 0.06454499 0.40462634
-0.13122614 0.2376201 0.43928486 -0.40962562 0.721928 -0.4852116 -0.70391697 -0.19656718
-0.112228975 -0.17796998 0.30723426 0.5283362 0.057546698 0.22580734 0.18060893 0.3528581
-0.20887043 0.18298583 0.05205554 -0.26979986 0.6839165 -0.29470676 0.7536624 -0.26258534
0.54567075 0.27585897 -0.23824012 -0.48543525 0.22298704 0.07257406 0.21588877 -0.31680435
0.39893514 0.086492054 0.6173194 0.069551975 -0.49704555 0.04264076 -0.082142204 -0.11458871
-0.10318628 -0.47123262 0.048766337 0.019089743 0.034897394 0.18222344 0.1435121 -0.14237612
-0.76316255 0.5331659 0.052033953 -0.2009746 -0.32301098 -0.30971134 -0.17435381 -0.49298432
-0.07697556 -0.042725645 1.0418593 -0.25635666 0.63757527 -0.57336473 0.24144465 0.052428428
-0.44557783 0.090157054 -0.4764512 0.4094399 0.33219832 -0.011988041 0.42069367 0.35288844
0.26080543 0.17124571 -0.2504979 0.25383955 0.23859455 0.3968133 0.60127836 -0.49664086
0.13878535 0.47446334 0.525424 -0.1670561 0.37722576 -0.027469445 -0.18716341 0.07114393
0.25840238 -0.39792818 -0.56919825 -0.3075924 -0.08518025 0.41390452 -0.28379822 -0.6769796
-0.22400922 -0.5527419 -0.38394552 -0.13524699 -0.20344593 -0.20375879 -0.08422781 -0.37196606
-0.47430387 -0.45979434 -0.24348961 -0.59548086 -0.1441678 -0.04688681 0.058938116 0.4939097
0.18540391 -0.04016651 -0.34527272 -0.031329256 0.30935872 -0.270357 0.19781321 0.22923829
0.087364525 -0.60870254 0.5646558 -0.3051974 -0.36326158 0.08607207 0.0134471385 0.61030775
0.16652776 -0.00058079546 -0.14424774 -0.10825972 0.5721902 0.37058172 -0.11839793 -0.44145072
-0.13293292 0.12263736 -0.14307013 -0.30142677 0.045365285 -0.026000384 -0.43540964 0.27880448
0.23864561 -0.4996905 0.23451456 0.07161551 -0.16752563 0.19093667 -0.41987547 0.1658677
-0.1568575 0.3048455 -0.17314078 0.007872269 -0.12819706 -0.27469945 -0.39289775 -0.38451794
-0.07364846 -0.15828243 0.12220348 0.14927657 -0.4637178 -0.010198795 -0.08442927 -0.24840982
0.28604487 -0.35223922 -0.107016794 -0.19656967 -0.6569048 -0.3974305 -0.3935114 -0.0100645665

base.3linear.bias f4 [20]
00000000: e607 6c3d 9e83 c0bd 6f07 a63d d834 84bd
00000010: 4215 443e fdab 06bd 03e2 e8bc 0d65 79bd
00000020: c183 62bd ea8d 073e c596 0b3d f041 143d
00000030: 1a1d 71bd f8f5 2abc 9593 93bc 3f6c d13d
00000040: 8f43 27bd 21a0 123d 9232 96bb e47d 763c
0.05762472 -0.09400104 0.081068866 -0.06455392 0.19148734 -0.032878865 -0.028428083 -0.060887385
-0.05530143 0.1323773 0.034079332 0.036195695 -0.058865644 -0.01043462 -0.018014709 0.102257244
-0.040835913 0.035797242 -0.004583665 0.015044663

base.4linear.weight f4 [20, 20]
00000000: 9a5d 38be fa8e 803d ebc6 20bc 3f46 9b3c
00000010: 6dc6 033e 8d65 14be fdf2 1cbc 3a28 19bd
00000020: 3b74 ab3e d249 26be 6d19 493e c509 0dbe
00000030: 68ad bebe 77d5 5dbe 1811 24be 5a55 a3be
00000040: eda3 82be 1c25 a03e 253f 1dbe 01b4 cd3d
00000050: 80af cb3e 3ba2 503e 00da 5ebe 71eb ecbd
00000060: 6f69 193e 46c8 2ebe 30b0 343c 8acf b93d
00000070: f3bf cd3e 7f74 4b3d bdc6 45be 344e 2c3e
00000080: 59dd 283d 6442 2f3f 7025 86be 5f6a d13d
00000090: 4c73 91be 0708 ffbc f158 62be 710f ad3d
000000a0: b363 fc3e bf1d 8b3d 31ef c7be 1612 5abe
000000b0: 43d6 403d 5d45 93bc e155 1cbe cd46 3a3e
000000c0: 1570 93be 6ba7 49bd acf1 c4bd 9403 71be
000000d0: cab5 ce3e 8e73 a53d ff3a 263e a00c 73be
000000e0: 1c57 bb3e ac17 8c3e 1d14 ff3e 9cff 7cbd
000000f0: 6c68 643e dc9a dcbd 1e01 2b3f b0ad 973c
00000100: ba16 d33e 20e9 5c3e b333 e3bd b6e4 353e
00000110: 7d7b f33d 418d c83c 0fe3 183d dcf8 57be
00000120: fff7 1cbf faee b6bc 0df1 91bd 013f c73d
00000130: a352 6d3e a4ca b23c 6b8b 303e a6fb 983e
00000140: 3a8b 2f3c ea56 5dbe 68a2 41bf 9295 c73d
00000150: 52df 2ebe 5af0 bebe 6919 9ebe 60af 5ebe
00000160: c873 cf3e 450f f8bd cd3d d03e 226c 6f3e
00000170: 71ba 293e d0f0 23be d4e5 bd3e d374 cabd
00000180: 656a 643e 818b e0be 4580 85be f235 143f
00000190: 1d8d aa3d 6a56 4b3f 6bfc 743e 4641 c2bc
000001a0: 594d 28be 3ccf 4ebf c749 dd3e a815 03bf
000001b0: 8c96 6bbf 377b 263e 2c93 91be b385 253f
000001c0: 0e34 063d e49e 9fbe 3c0c 0ebe 27d6 8f3e
000001d0: 92a3 9a3e 48e6 6f3e 7ab2 b8bd adc9 8c3d
000001e0: 3010 c83e 6053 46bd d54d b7be 183e 85bd
000001f0: b3a2 74bd 6094 043d d941 d8bd 54a4 a0bd
00000200: 7692 5bbe d910 6abf 5cda ef3e 8d8b 9ebd
00000210: 7825 563e 0120 e73c 13e3 32bf d55d 14bf
00000220: d2f6 a2bd 1ad6 b43d 2b33 f83d 8b50 aa3d
00000230: fba2 103f b5f2 4ebd dafa fcbd 5688 ee3a
00000240: 20d1 8abe 59c7 da3e 9aab 29bf 4243 333d
00000250: 0e2a 9a3d c219 35be e440 c5be 151b 19be
00000260: fb5f 573d aae6 56be 38ae 63be 5d08 a83e
00000270: ec8f 513e a775 e3be 47fe 203d 3955 e8be
00000280: 067a 233d 5df0 0f3f 4759 abbc d1fe d43d
00000290: 20e1 cc3e a610 10bf 7df0 8ebe 8815 593d
000002a0: de77 713c 941b 693d 6e6d e23d af32 7ebe
000002b0: 1508 d2bd 57dd cc3e 19cf 413f 1a1a 2b3e
000002c0: e5f9 d73d 8ffe 4f3e 0147 b33d ddc8 06bf
000002d0: acda b8bd e3ea a6be ee0f 9fbd 297a 753c
000002e0: 45d9 a13b 443e 8cbe 614c 963d 96f5 a13d
000002f0: 3d21 a43e e5a7 55bd 12df 0e3e 6ba6 d23e
00000300: 473d 6d3d 248a 36bf 65ba 0b3b 3fbd 3cbe
00000310: fa9e 0bbf 6909 e13e 12aa e23d b7df 9cbd
00000320: 9724 5e3e 6d81 5e3e 8266 0cbe a7b4 e4bd
00000330: 0704 c2bd 26ae 143e 04aa 54be 86b1 9e3e
00000340: 613e 81be c913 913e f77e 823e 40ab 0e3e
00000350: f2f2 f7be 2067 a0bc 4f3c 2ebe eb87 e93d
00000360: 03d1 983e 1249 fbbd 3b0f 033f 8356 73be
00000370: 035d 11be 55b8 c13e 3ba3 193d a671 253e
00000380: 0d1d c1be 1974 b4be d54d 6d3e 5e4c 1dbf
00000390: 42cd c2bd bc8f e23e 4ff2 35bd 4ae3 ac3e
000003a0: ac70 ba3d 297b a63e e937 e6be e756 163e
000003b0: 1b1e 8b3e ed39 883e 6e2f fbbb 683d 833e
000003c0: 8de2 db3d bebe 14bf 9af1 0f3f 0584 5b3d
000003d0: 54fc 563e 1740 3ebf f081 d8bd 852b 8bbe
000003e0: 9e31 293f f7f4 9e3c 71f7 c3be a886 db3e
000003f0: 7660 aabb e591 83bd 9172 2f3d ab40 033e
-0.18004456 0.062772706 -0.009813051 0.018954394 0.12868662 -0.14491864 -0.009579417 -0.03739188
0.33487114 -0.16239098 0.19638605 -0.13773258 -0.37241673 -0.21663462 -0.16022146 -0.31901056
-0.2551569 0.31278312 -0.15356119 0.10044099 0.39782333 0.20374386 -0.21762848 -0.115683444
0.14981626 -0.17068586 0.0110283345 0.09072788 0.40185508 0.049671646 -0.19314094 0.16826707
0.04122672 0.6846068 -0.26200438 0.10225367 -0.28408277 -0.031131757 -0.22104241 0.08450211
0.49294814 0.06792783 -0.39049676 -0.21295962 0.047079336 -0.01797741 -0.15267135 0.18191071
-0.2879645 -0.049231928 -0.09616408 -0.23536521 0.4037307 0.08078681 0.16233443 -0.23735285
0.36589897 0.2736181 0.49820033 -0.061767206 0.22305459 -0.107717246 0.6679858 0.018515438
0.41228276 0.21573305 -0.11093845 0.17763028 0.11888788 0.024481418 0.037325915 -0.21091026
-0.6131591 -0.02233075 -0.07126055 0.09728814 0.23176055 0.021825142 0.17240684 0.29879493
0.010714347 -0.21615186 -0.7563844 0.09745325 -0.17077377 -0.3729275 -0.3087876 -0.21746588
0.40518022 -0.121122874 0.4067215 0.23381093 0.16575028 -0.16009831 0.37089407 -0.09885564
0.22306211 -0.43856433 -0.26074424 0.57894814 0.083276965 0.7942873 0.23924415 -0.023712765
-0.16435756 -0.80784965 0.4322035 -0.5120492 -0.9202659 0.1625794 -0.28432596 0.64657134
0.032764487 -0.3117591 -0.13871855 0.28093073 0.3020292 0.23427689 -0.09018417 0.06874404
0.3907485 -0.048419356 -0.3580157 -0.06505984 -0.059725475 0.032368064 -0.105594344 -0.07843843
-0.21442589 -0.9143196 0.46846282 -0.07741461 0.2091273 0.028213503 -0.6987774 -0.57955676
-0.079572335 0.08829899 0.121191345 0.083161436 0.5649869 -0.050524432 -0.12352534 0.001819859
-0.27112675 0.42730215 -0.6627747 0.043765314 0.075275525 -0.17685607 -0.3852607 -0.14951737
0.05258177 -0.20986429 -0.22234428 0.3281888 0.20465058 -0.444257 0.039304998 -0.4537752
0.039911292 0.5622614 -0.020916594 0.10400165 0.40015507 -0.56275403 -0.27917853 0.05299905
0.014738051 0.056911066 0.11056028 -0.24824022 -0.10255448 0.4001262 0.7570663 0.16709176
0.105457105 0.2031195 0.08753777 -0.52650243 -0.09026083 -0.3260108 -0.0776671 0.0149827385
0.0049392306 -0.27391255 0.07338787 0.0790817 0.3205661 -0.05216207 0.13952282 0.41142592
0.057919767 -0.71304536 0.0021320817 -0.18431567 -0.54539454 0.43952492 0.110675946 -0.07659858
0.21693645 0.2172906 -0.13710979 -0.11167269 -0.094734244 0.14519557 -0.20767981 0.30994815
-0.25242904 0.28335407 0.2548749 0.13932514 -0.4842754 -0.019580424 -0.17015193 0.114028774
0.29846963 -0.122697964 0.51195115 -0.2376347 -0.14195637 0.37835947 0.037509184 0.16156635
-0.37717476 -0.35244825 0.23174222 -0.6144465 -0.09511806 0.44250286 -0.044420537 0.33767158
0.09103522 0.3251584 -0.4496453 0.14681588 0.27171406 0.26606694 -0.007665566 0.25632787
0.107365705 -0.5810355 0.5622803 0.0535927 0.20994693 -0.74316543 -0.105716586 -0.2718164
0.66091335 0.019403918 -0.3827472 0.42876172 -0.0051994873 -0.064243115 0.04283387 0.12817638

base.4linear.bias f4 [20]
00000000: d4e3 80bd 693e 9eba 0a95 92bd e9b1 30bd
00000010: 265a bc3d 0eaa 25be 8708 14bd 8f40 cdbd
00000020: b373 acbc bfd5 503d 1f1f b53d 8f45 74bc
00000030: eec7 cd3d 0f0f 57bd fb46 56bc 7d48 3ebe
00000040: 3725 6cbd 6f29 c33d f311 38bd ae03 b43d
-0.06293455 -0.0012073043 -0.07157333 -0.04313842 0.09196882 -0.16178152 -0.036140945 -0.10022079
-0.021051263 0.050985094 0.088438265 -0.014909162 0.10047899 -0.052504595 -0.0130784465 -0.1858234
-0.05765268 0.09529387 -0.044938993 0.08789764

base.5linear.weight f4 [20, 20]
00000000: e77b e73d 22e1 65be 9d1d f83e cf64 eb3d
00000010: 293e 033f 6d9b 1abf a160 0c3e d6ea 193e
00000020: b40b c2bc a289 40bd 0ec6 46be e3e3 1fbe
00000030: 84d3 b3bc dda8 cf3e 6f58 a1bd 69ad d73c
00000040: 428f 543d 1130 213e 7cc9 9d3c 17c8 3bbe
00000050: df5f 693e 18b5 743e 7da3 e2be a870 5e3e
00000060: 93d6 a13e 7734 8fbe 7609 50be 9850 d3be
00000070: 443f 87be b4aa c9be 151f 63be 641a a43d
00000080: caee 5ebc ecc3 7abe 7cbe 243e 436e 563f
00000090: 11aa 1b3f 4eda cdbe 1025 2dbf 9b78 d1bd
000000a0: fccd 753e 18b7 9b3d fe55 d8bd 90d3 a2be
000000b0: a225 f63e 51b2 383e 145c bbbe ff21 0cbe
000000c0: 03bb edbe 171e 5fbd 6663 1dbe 7e64 f13d
000000d0: fab7 b63e 73fd 063f 0d75 0fbe dde9 353e
000000e0: a275 9a3f 6e51 9bbd c8e4 24bf 8ddd a5bd
000000f0: c248 9dbe 0c51 76be ab40 d9be 0b07 4fbd
00000100: 803d af3e 9875 08bd 7060 ff3e f04c f9be
00000110: d8b0 31be 2895 9cbd 6658 1bbf 3331 febc
00000120: 5ca4 06be 01f2 a23e ad6c ddbe d494 043e
00000130: 26b1 6d3e a531 93be 4753 003e c1ac ee3c
00000140: c117 313e 4eeb 8fbd 86fc 40bf 2f65 c93d
00000150: e229 803e 251f 03be 94e6 e7be e46b af3d
00000160: 7ae7 6dbe 7f95 76be 426f 5f3e b90d d93e
00000170: 95e6 47be fa76 933d 752a 39bb 0346 0b3e
00000180: 6e02 54bc eb59 92bc bf8a f2be ef51 643f
00000190: 3253 d93e a68e 21be 753b fd3d 6d1a 09be
000001a0: 9028 d83c 54dd fc3c 3c0e 903e 3f92 ee3b
000001b0: baee 9bbd 2cc5 493e df95 e5bd d5cd b3be
000001c0: bcae 00be 3679 ccbe 02c7 d03e 4aa2 a2bd
000001d0: 1748 b03e 3902 2b3e 9aa8 853d 4887 0dbf
000001e0: 97d1 f4bd 48d7 eebd cd85 08bf 0589 a8be
000001f0: 4ab9 7a3e 6352 663c 0b83 103f bce9 8bbe
00000200: d882 453e 6d62 073f 0444 1bbf d9c0 16be
00000210: 115a 293f 420e 89be f112 5bbe 1cf9 9fbe
00000220: 84b2 debd 3587 933e 3dfc 1bbb b520 a4be
00000230: f4a3 dc3d 1157 cebd c447 193e 517e 5e3e
00000240: 0301 0d3e 7819 eabc 2d9f 24bf 30d1 2d3d
00000250: fd56 ee3e 590f 2cbe 6e6c 013e c72e 8e3e
00000260: 003a 843e 0944 02bf 29ea 9a3e ed16 cc3d
00000270: 7d17 a03e a5ff 1dbf 143c c8be 7f83 313e
00000280: 5ca2 dfbe bafe f5bd 8fbc 14be 36fc 9cbd
00000290: 47d8 3abe 8641 1d3e 6e37 01be 0633 ce3d
000002a0: dab8 8fbe 2d60 b0be ddc5 bfbe 5d00 f53d
000002b0: e1af d23d 1a92 6e39 ef2b 0b3e 8b46 a3bd
000002c0: d820 dd3d bad0 953e 9681 a43e a7bd f2be
000002d0: 2064 0c3e 96d1 0d3f aa3f f43b 95cd 823e
000002e0: 7d61 1a3f e147 c93e a2b8 cb3e 8c21 b03c
000002f0: 3139 cbbc 20d0 87be 82fa d7bd 326a 043f
00000300: 3f17 d2bd 5033 323e 6441 f7be ce28 2cbd
00000310: 8e53 3abe 6a26 40be 921b 0e3f 88f2 65be
00000320: cda0 e03d 84bf 5bbe bc1d 7dbd 2758 4ebe
00000330: 7f87 05be cceb 3fbe 5053 b5be 7338 3e3f
00000340: 2a34 6fbe 4a2c 88be 44e4 923e 43cb b9bc
00000350: d5bf 943e 49c9 40be 9c28 8bbe 2a49 8ebe
00000360: 3145 083f 1fd7 323e e6c6 32be dcd2 29bf
00000370: c015 743e a932 81be 1327 a8bd 81bb 213f
00000380: dbba 0abe ca23 fabe 51b5 e23b ea47 033e
00000390: 15a4 85be 8d67 a63e b9d6 babd de42 c83c
000003a0: 0634 acbe 3e1d ad3e f469 593e be10 5bbd
000003b0: 9560 44bd f50e 4a3d 093e c8bd 988e 2dbe
000003c0: ea46 013f a621 193e d513 a2be d305 ed3e
000003d0: fde0 dcbc 9bc8 25be 0c60 df3e 3a61 873c
000003e0: 1f86 03bf 6632 023f c19f cdbd 5396 ee3d
000003f0: cc82 3e3f 70d0 253d 085d 583e 44dd 053e
0.11302929 -0.22449163 0.48460093 0.11493837 0.51266724 -0.6039341 0.13708736 0.15030989
-0.023687221 -0.047006257 -0.1941149 -0.15614276 -0.021951444 0.4055852 -0.078781955 0.026327806
0.051894434 0.15740992 0.019261114 -0.18338047 0.22790478 0.23897207 -0.44265357 0.21722662
0.3160902 -0.27969715 -0.20316109 -0.41272426 -0.26415455 -0.3938805 -0.22179826 0.08012846
-0.013606736 -0.24488801 0.16088289 0.83761996 0.60806376 -0.40205616 -0.6763468 -0.10228082
0.24004358 0.07603282 -0.10563277 -0.31802034 0.48075587 0.18036772 -0.36593688 -0.13684843
-0.4643174 -0.054472055 -0.15369949 0.117867455 0.35687238 0.5273048 -0.14009495 0.17764993
1.2067149 -0.07583891 -0.6441159 -0.08098898 -0.30719572 -0.24054354 -0.4243215 -0.050543826
0.34226608 -0.03331527 0.49878263 -0.4869151 -0.17352617 -0.07645637 -0.6068176 -0.03102932
-0.13148636 0.3182526 -0.43246976 0.12947398 0.23212108 -0.28748813 0.12531768 0.02913511
0.17294218 -0.07027303 -0.7538532 0.09833752 0.25031954 -0.1280485 -0.45293105 0.085655004
-0.23232833 -0.24080466 0.21819785 0.42393282 -0.19521554 0.07200427 -0.0028254066 0.13600926
-0.012940032 -0.017865142 -0.4737148 0.8918752 0.42446285 -0.15777072 0.12364856 -0.13388987
0.02638653 0.030867256 0.2813586 0.0072806175 -0.07613893 0.19704121 -0.11210226 -0.35117975
-0.12566656 -0.39936227 0.4077683 -0.079411104 0.3443 0.16700067 0.06526299 -0.5528455
-0.119540386 -0.116621554 -0.53329164 -0.32917038 0.24484745 0.014057728 0.56449956 -0.27326763
0.19288194 0.5288456 -0.6065066 -0.14722003 0.66153055 -0.2676869 -0.21393944 -0.31244743
-0.10873893 0.28814092 -0.0023801469 -0.32056203 0.10773459 -0.100752 0.14968783 0.21727873
0.13769917 -0.028576598 -0.6430538 0.042435825 0.46550742 -0.1680273 0.12639019 0.27770063
0.258255 -0.50885063 0.30256775 0.0996531 0.3126792 -0.6171821 -0.39108336 0.17335318
-0.43678558 -0.12011476 -0.14525054 -0.07665293 -0.18246566 0.15357026 -0.12618801 0.10068326
-0.28070718 -0.34448376 -0.37455645 0.1196296 0.102874525 0.00022751876 0.13590978 -0.079724394
0.1079728 0.29260808 0.32130116 -0.47410318 0.1371007 0.5539793 0.0074538784 0.25547472
0.60305005 0.39312652 0.397893 0.021500371 -0.024807544 -0.26525974 -0.105458274 0.5172454
-0.1025834 0.17402387 -0.48292077 -0.042031102 -0.18195936 -0.18764654 0.5551082 -0.224558
0.1096817 -0.21459776 -0.061795935 -0.20150815 -0.13039969 -0.18742293 -0.35415125 0.74304885
-0.23359743 -0.2659629 0.28689778 -0.02267993 0.29052606 -0.18826784 -0.2717942 -0.27790195
0.5323058 0.17464875 -0.17458686 -0.6633737 0.23836422 -0.25233963 -0.08210578 0.63176733
-0.13547842 -0.4885543 0.0069185873 0.12820402 -0.26101747 0.32500878 -0.09122986 0.024445947
-0.3363344 0.33811373 0.21231824 -0.053482763 -0.04794367 0.04933067 -0.09777457 -0.16948926
0.5049883 0.14954242 -0.31655756 0.46293506 -0.026962752 -0.16189806 0.43627965 0.016525853
-0.5137653 0.5085815 -0.10040236 0.11649766 0.7441833 0.040481985 0.21129239 0.13072687

base.5linear.bias f4 [20]
00000000: cb6a e8b9 1d0e e4bc 526a 9d3e f645 a03d
00000010: 5226 44bc 1881 05bd cbb3 613d dda7 cdbd
00000020: d12a 19bc fc67 90bd a011 97bc cf71 6bbd
00000030: 2771 2bbe e4fe f9bc f58b 65be 3cee 10be
00000040: 5228 48be fcf0 013e 7e93 f93d 1463 153e
-0.00044330055 -0.027838761 0.30745178 0.07825844 -0.011972027 -0.032593817 0.055103105 -0.10041783
-0.009348587 -0.070510834 -0.018441021 -0.057481583 -0.16742383 -0.03051705 -0.2241667 -0.14153379
-0.19546631 0.12689584 0.12186335 0.14588577

base.6linear.weight f4 [20, 20]
00000000: 51e5 053f 2827 2e3c 844f afbd 6f24 32be
00000010: 416f bfbe 2a50 02bf 7a54 0f3e 823f 90be
00000020: 5fa7 12be 4037 0abe 1415 643d b832 a0be
00000030: 0de2 9fbe acba b6bd 9d23 ec3e 5adf 8b3e
00000040: 926d f33e 326d 9bbd c45d b83c 3404 df3e
00000050: d457 1b3f 78f3 e5be 82f6 1a3e 82f1 033f
00000060: dbd2 fb3e 55d7 98be 7d52 723e 46e0 02be
00000070: 3457 cc3e 1a45 ac3d 15bf 543f 70f9 2f3e
00000080: 7248 253c 1003 c33e 5e20 ac3e e808 e8bd
00000090: a4ce e2bd 4598 9abe f9d8 5c3d b3fe 9e3e
000000a0: fe0d d5be d5bc 96bd 4b43 ac3e 9253 923e
000000b0: 16df 183e c421 5f3e 6036 3c3e 96e3 8d3e
000000c0: 7613 c5be 9d50 3f3d 82ab b23e 1fa4 cc3e
000000d0: 96ff 03bd 32e1 d33d 2af9 d63e 59cf 8fbd
000000e0: 82ed c13d 1062 b73c 0bcd 31bf 7e64 09bf
000000f0: 59f0 ad3e 618b 85be d2ef 163c 1203 ab3d
00000100: 1458 00bc 8ff8 28bf 7e5e af3d f02c 8b3d
00000110: 8cf9 ec3e 8195 29be db33 26bb 8516 103f
00000120: 4e68 f8bd 52a4 843e 6a5a 0ebf 0dc3 de3f
00000130: 19b3 573f 8893 f8bf f8f1 053f 8d9b 573e
00000140: 9efa c9bd a258 a63e ea51 20bd 5048 9b3e
00000150: c6d2 e73c 307b 04bf d1f9 bd3e 1748 e03e
00000160: e180 c3bc c11d e43d 53a1 88be c08f 803c
00000170: 5527 0a3d 4f93 4a3e f31f 623e dc6f 693e
00000180: ebc0 8ebe bf0a 87bd f92d 683e a769 c5be
00000190: c1ff 05bc cc37 1c3f a3d6 ab3c ea5f 123e
000001a0: cd13 783e df10 93be fb26 533f c37c 123f
000001b0: b59a cc3c ba0b e53e 2202 32be d73d 4dbd
000001c0: a106 b1bd 4582 a2be 9a8b e4be 11a3 ffbe
000001d0: 1fd1 16bc 37bf f63d 48b7 d73c eb11 90bd
000001e0: 48f6 503d c390 fb3e fda2 703e 2b72 afbe
000001f0: 0763 8f3d 3e53 193e ada4 42bd eba3 dc3e
00000200: 6269 153e 904d 113f 6295 72be 5769 ea3c
00000210: 4872 adbe c511 9fbe a504 fb3e 676f 633e
00000220: af75 963e d400 44bd c07b fd3e 4218 803d
00000230: 733c b13d 8017 79be cef8 5ebe dd88 88be
00000240: 0713 bd3c 67e6 153f b384 0c3e dc77 09be
00000250: 1f41 32bd 61f0 19be 85c5 3f3e 4279 883e
00000260: 9621 753d f449 aa3e 6e81 003e 4e5e c5bd
00000270: 73ae c9be 8058 873e 5695 c7bd 123a fabd
00000280: e270 bebd 5af1 1ebe f15e 90bd ce38 01bf
00000290: 2a25 44be 5062 c33e ff42 8abe 4e24 603d
000002a0: a389 b53e 3490 14bd abba 3f3e d643 ea3d
000002b0: 3153 903e 7c44 2c3f 6c98 c43e 5e89 1d3e
000002c0: 5e14 ee3c 2800 b33c 0b8e 403e 5eb0 e7be
000002d0: e346 a1bf d93c 0a3e 37a6 36be afca 5d3e
000002e0: a6c6 8abe 7608 8d3e cb5d 133f 3154 163e
000002f0: 6714 09bd 84dc 07bf b0a9 81bf 9439 4fbf
00000300: 44f4 f53c 7995 ce3e e38c 83be be0f 11bf
00000310: f95a 00bf 7b20 1c3e f3e6 7ebe c6eb abbe
00000320: 377d 64be 8f1a b33e 9634 a53d d82b 813e
00000330: c5ea 3cbd 830e f0bd 88c8 babe 99de 4d3f
00000340: e036 e53e e3f9 82be 9606 0abe 7330 21bf
00000350: d480 c73e a62d e53e 6c06 853e f7cb a4be
00000360: ae38 55be a78c 31bf 2c4d 18bf edcd b23c
00000370: c037 8b3e 12b5 bebb a695 07bf 70ef 0f3d
00000380: 626e 02bf 6300 dbbe 9688 3e3e 1b69 093d
00000390: 4c79 5c3e 67ed bc3e e2b7 58bd a0d6 263f
000003a0: efd2 873e 821b 98be e437 d4be 374e 09bd
000003b0: dc9f a03d 73e5 823e cfe8 29bf 5953 76bd
000003c0: 663b ddbd 856f f0be 36f4 073c 78f4 a63e
000003d0: b6cf 843e ca3d d93d 2cd4 b43d d5e2 b53d
000003e0: c703 183f a777 a93e e82d d6bd b986 b83d
000003f0: 187c 763e 6968 87be e4f6 1e3e f2b5 0b3e
0.52303034 0.010629453 -0.08560088 -0.17396711 -0.37389567 -0.5090357 0.13997069 -0.28173453
-0.1432166 -0.13497639 0.055684164 -0.31288695 -0.3122715 -0.089223236 0.4612092 0.2731884
0.47544533 -0.07589187 0.022505648 0.43557894 0.6068089 -0.44912314 0.15133098 0.51540387
0.49184307 -0.29851785 0.2366428 -0.12780866 0.3991028 0.084116176 0.8310407 0.17184997
0.010088073 0.38088274 0.33618444 -0.11329824 -0.1107457 -0.30194297 0.05391786 0.31053695
-0.41612238 -0.073602356 0.3364509 0.28579384 0.1492885 0.21790224 0.18380117 0.27712697
-0.3849141 0.04670774 0.34896475 0.39968964 -0.032226168 0.10345687 0.41986972 -0.0702197
0.09469129 0.022385627 -0.69453496 -0.53668964 0.33972433 -0.260829 0.009212451 0.08350195
-0.007833499 -0.6600427 0.08562945 0.067956805 0.4628414 -0.16560937 -0.0025360498 0.5628436
-0.121292695 0.25906616 -0.5560671 1.7403275 0.84257656 -1.9420023 0.5232234 0.21055432
-0.098622546 0.32489496 -0.03914062 0.30328608 0.028298747 -0.5175047 0.37104657 0.43805
-0.023865165 0.111384876 -0.2668558 0.015693545 0.033728916 0.19782756 0.220825 0.22796577
-0.2788156 -0.065938465 0.22673787 -0.3855717 -0.008178652 0.6102264 0.02097637 0.14294401
0.24226303 -0.2872381 0.82481354 0.5722162 0.024976114 0.4473551 -0.17383626 -0.050107803
-0.086438425 -0.31740013 -0.44637758 -0.49929097 -0.009205132 0.1204819 0.026332512 -0.070346676
0.051016122 0.49133882 0.23499675 -0.3426679 0.0700131 0.1497316 -0.04752033 0.4309381
0.14590982 0.56758976 -0.23689798 0.028614683 -0.33876252 -0.31068245 0.4902698 0.22210465
0.2938666 -0.047852352 0.49508476 0.06254627 0.08654108 -0.24325371 -0.21774599 -0.26666918
0.023080362 0.5855469 0.13722496 -0.13424629 -0.043519136 -0.15033104 0.18727691 0.26655012
0.059846483 0.33259547 0.12549374 -0.09637128 -0.39390907 0.26434708 -0.097452804 -0.12218107
-0.092988744 -0.15521756 -0.07049359 -0.504773 -0.19154802 0.38160944 -0.2700424 0.054722123
0.3545657 -0.036270335 0.18723552 0.1143872 0.2818847 0.67292 0.3839754 0.15384433
0.029062446 0.02185066 0.18804185 -0.45251745 -1.2599758 0.13499774 -0.17836843 0.21659349
-0.27104682 0.27545518 0.5756499 0.14680554 -0.033466723 -0.53070855 -1.012991 -0.8094723
0.030023701 0.40348414 -0.25693426 -0.56664646 -0.50138813 0.15246765 -0.24892788 -0.33578318
-0.2231339 0.349812 0.080666706 0.25228763 -0.04612233 -0.11721518 -0.36481118 0.8041778
0.4476843 -0.25581273 -0.13479075 -0.6296455 0.38965476 0.4476139 0.25981462 -0.32186863
-0.20822403 -0.69355243 -0.59492755 0.021826709 0.2719097 -0.005819925 -0.5296272 0.035140455
-0.5094968 -0.42773733 0.18606791 0.033547502 0.21530646 0.36899874 -0.05290974 0.6517124
0.26528117 -0.29708487 -0.4144889 -0.033521857 0.07842991 0.2556568 -0.6637086 -0.06013808
-0.10802345 -0.46960083 0.0082979705 0.3260839 0.2593972 0.106074885 0.08829531 0.088811554
0.59380764 0.330991 -0.10457975 0.09010071 0.24070776 -0.26446846 0.15523869 0.13643625

base.6linear.bias f4 [20]
00000000: 6076 31be 66f0 b7bd 6b9f 1ebe 61ec 9d3d
00000010: 5f1c fb3c 3bfc 393e 72a2 003e 9096 9fbd
00000020: 4d7b 75be cd6d a53d 4179 7d3e e67d 8ebe
00000030: ae7b 9cbd 0491 ebbd 1e80 3cbc dbf1 223d
00000040: af4f 2a3c f56c 06be 2625 80bd 91e6 57be
-0.17330313 -0.08981399 -0.154905 0.07711101 0.030653177 0.18162625 0.12561968 -0.077923894
-0.23972817 0.080775835 0.24753286 -0.27830428 -0.076407775 -0.11502269 -0.011505155 0.039781433
0.010394975 -0.13127501 -0.062570855 -0.21084048

base.7linear.weight f4 [20, 20]
00000000: 16e6 2bbd 8f9b 723d 7490 b0be 0733 933e
00000010: 97e6 623e 5bc6 243e de67 22bf 37a7 283e
00000020: de51 f6be 59b3 4bbe 53fe 84bd bdb1 9bbe
00000030: 053b 41bf 76fb f0bb 9778 42bd cbec aabe
00000040: a7b4 eabc d367 293e c052 b23e a18d fbbe
00000050: 57c1 a53e a4ac 37be 01db 00be e6d0 de3e
00000060: 1b37 803e c2b5 cf3e 709d 1ebf c263 c4be
00000070: 2a5d 7bbe f57d 1fbf 27c1 83be 5572 93be
00000080: b183 97be 5607 d83e fac1 b63e f1d7 2a3f
00000090: 601a 20bf 16bc c1be c32b f93e 5afe aabe
000000a0: e26c 4a3f 2dcd 11be c273 943e 4bc6 16bf
000000b0: 0d1a c73e 5dd1 0a3d 2469 01be 7687 74be
000000c0: c76e c9be e9ca 1d3d 4416 9b3e 18aa d3be
000000d0: 877d af3e 8ce9 81be e265 aabc 6f77 bfbe
000000e0: dbdb cc3c 3f98 37be 8d32 d13e 6bca b03e
000000f0: 30b3 a83e 80be e73c b8fa 83be 2fe0 083e
00000100: 60e5 4abe b85b d9bc 8d34 6bbe 904b 55bf
00000110: 7cfa 783d 6d14 31bf fd13 69bf 5e74 223e
00000120: 5cae 59be c0a4 093e a9f1 8fbe c870 dcbd
00000130: 65e2 7ebe 4a3b f6bd 018d 86be 9c63 a93e
00000140: 8b07 d0be 7a34 56be f369 0dba 4dae 923d
00000150: d51f 84bf cf91 163f 3713 773e a931 3b3e
00000160: cb58 ea3d dcca 5abe b7bb 1abf 3f1e a03c
00000170: b3bd 273f 4bed 1d3f 7733 a7bd 54ef 15bd
00000180: 7092 6cbf c56c dfbe c396 a03f fde6 d4be
00000190: f1b8 29be 6f97 b63e cb28 053f 14f0 38be
000001a0: 14c6 0cbe da38 85bd 77ea 063d 0dd0 93be
000001b0: 156c 273d dfba f1bd ddcc eabd 2cf2 bc3d
000001c0: 8bef e63e be3d 293f 7f91 583f 6203 023e
000001d0: a071 33bd 3639 0b3f 0a45 963e 8039 e03d
000001e0: 8856 33be 63ab 90bd 7ed7 033f deef 823e
000001f0: 9207 2cbb 7fba f33d 614a da3e 8dac 21be
00000200: 7b36 483e e6f3 f33d 80e0 1a3f a54c 24be
00000210: 9d5a aa3e 5621 223e b78d 3fbe 30d0 793e
00000220: 0c02 c53d 5df3 233e 0338 723e 44fe 513d
00000230: ebda d9bd 501e e03c 35a9 813e e5ea b4be
00000240: c1e5 03be fbec 06be b7fd e4be 1ffa e6bd
00000250: f8c7 7bbe 2e10 ab3d 39e9 12bf afe7 ecbd
00000260: 987e 4bbe c231 d6bd fa70 3f3d fec1 723d
00000270: 1744 6b3e d5c4 893e 6508 333f 8261 c63e
00000280: 11d1 9fbe ff9b acbe a7c4 f43b d81d 023d
00000290: 9a59 ba3d 27c6 d73e 9b93 443f 0354 d23c
000002a0: 3f4a 833e 4d0f 1d3f 0790 453e 3a4a bebe
000002b0: 4f28 2fbe d7e8 aabe 1f84 84be 137f b0bc
000002c0: 131e 97be 0349 ffbd 23bb f6be e812 413f
000002d0: 40d3 af3e 66b6 913e 8f8e e6be 5b25 bc3d
000002e0: 32b8 12be aaef dc3e 16a7 6c3e 1238 85be
000002f0: 2768 11be 48b1 cf3d 71da 28be 94fa f53e
00000300: b049 8e3e ab99 813e 2202 683d 7bc4 823e
00000310: 4731 a43e 12fb 56bf 69ba 03be 997d 86bd
00000320: b3a7 babe 2f33 7dbe 6345 4d3e 3fdb 833d
00000330: fa5a 0f3f 7dd3 953e f645 023f 99ef 31bd
00000340: 27ab aebe 44c0 06bf c4b6 1abf acd7 80be
00000350: c35b b6bd 59d2 ddbe 9d1f d63e 7001 09bc
00000360: 2695 3b3f d0a3 3f3d d7b7 49be 8f82 45be
00000370: e3cc 793e 9d43 0a3f 6b31 76bd 98c3 eb3e
00000380: 3636 263f beae f83d daf4 133e 2ec5 0b3e
00000390: fa7e 8d3e fbdb a33e d29e 6e3c 6ec2 453e
000003a0: 9180 0a3e 04a1 4bbe 31ac 943e a3ed 583e
000003b0: 135d 9ebd 6d6b 42bf f3e5 3b3e 7511 803e
000003c0: a1e7 963e 44e6 3bbf 7842 0c3d 1a9c 87be
000003d0: f1f7 c6bd 6be0 42bf 2769 3bbe 4bf0 8abe
000003e0: d3c7 b13e fd6c bb3d c9ac d33d fea5 5a3e
000003f0: 9825 81bf 2307 813e 4e05 18bf 5f20 23be
-0.041967474 0.059230383 -0.3448521 0.28749868 0.22158276 0.16091292 -0.6343974 0.16470037
-0.48109335 -0.19892634 -0.06493821 -0.3040904 -0.7548068 -0.007354195 -0.047478285 -0.33383784
-0.028650595 0.16543512 0.34828758 -0.49131492 0.3237407 -0.17936951 -0.12583543 0.43518752
0.25042042 0.40568358 -0.6195898 -0.3835736 -0.24547258 -0.6230157 -0.257333 -0.28798166
-0.2959266 0.42193097 0.35694867 0.6673575 -0.62540245 -0.3783881 0.486662 -0.3339718
0.7907239 -0.14238425 0.28994566 -0.5889632 0.38887063 0.03389107 -0.12637764 -0.23879799
-0.3934233 0.03852359 0.30290425 -0.4134071 0.34275457 -0.25373495 -0.020800535 -0.37395808
0.025007179 -0.17929171 0.4085888 0.34529433 0.3294921 0.02828908 -0.2577722 0.13366769
-0.19814062 -0.026532993 -0.22969265 -0.83318424 0.060785756 -0.6917179 -0.91046125 0.15864703
-0.21257919 0.13441753 -0.2811406 -0.10763699 -0.2489105 -0.12023027 -0.26279452 0.33083808
-0.40630755 -0.20918456 -0.0005394511 0.071621515 -1.0322214 0.58816236 0.24128424 0.18280663
0.11442717 -0.21366447 -0.6044268 0.019545672 0.65523833 0.61690205 -0.08164113 -0.036605194
-0.92410946 -0.43637672 1.2546009 -0.4158248 -0.16574456 0.3566241 0.5201537 -0.18060333
-0.13747436 -0.06504984 0.032938447 -0.28869668 0.04087456 -0.11803221 -0.11464856 0.09225878
0.45104632 0.66109836 0.8459701 0.12696603 -0.043809533 0.5438417 0.29349548 0.10948467
-0.17513478 -0.070639394 0.5150069 0.2557363 -0.002624963 0.11900806 0.42634872 -0.15788479
0.19552033 0.11911754 0.6049881 -0.16044863 0.33272257 0.15833029 -0.18706404 0.24395823
0.09619531 0.16010804 0.2365418 0.051267877 -0.106374584 0.027358204 0.25324407 -0.3533546
-0.12880613 -0.13176338 -0.4472482 -0.112781756 -0.24588001 0.083526954 -0.5738712 -0.11567628
-0.1987251 -0.10458709 0.046738602 0.059267037 0.22975193 0.26907983 0.69934684 0.38746268
-0.31214193 -0.33712766 0.007469732 0.031766742 0.090991214 0.42143366 0.7678773 0.025674826
0.25642583 0.6135147 0.19293223 -0.37166005 -0.1710522 -0.33380768 -0.2588205 -0.021544969
-0.29515132 -0.12465098 -0.4818965 0.75419474 0.34340858 0.2845947 -0.4503064 0.091868125
-0.14328077 0.431516 0.23110613 -0.2601934 -0.14199887 0.101412356 -0.16489579 0.48042738
0.27790594 0.25312552 0.05664266 0.25540528 0.32068846 -0.8397685 -0.12864079 -0.065669246
-0.3645607 -0.24726556 0.20046 0.06438302 0.55998194 0.29262915 0.50888 -0.04344139
-0.34114954 -0.52637124 -0.6043513 -0.25164545 -0.08904221 -0.43324545 0.41820994 -0.008362159
0.7327446 0.046787083 -0.19699036 -0.19288085 0.24394564 0.5400942 -0.060105722 0.46047664
0.6492647 0.121427044 0.14448872 0.13649437 0.27635938 0.3200377 0.014564233 0.1931245
0.13525607 -0.19885641 0.29037622 0.21184401 -0.07732596 -0.7594517 0.18349437 0.2501332
0.29473594 -0.7339823 0.034243077 -0.26486284 -0.0971526 -0.76123685 -0.18301831 -0.27136454
0.34722766 0.09151647 0.103356905 0.21352383 -1.0089598 0.25200757 -0.59383094 -0.15930317

base.7linear.bias f4 [20]
00000000: df84 243e 64a8 8c3e e1ee ba3b c37d 593c
00000010: fda6 a93e 2380 c6bd 7568 74bb 0309 ba3d
00000020: f606 fc3c ac39 7b3e 75de 17bd e753 f13c
00000030: 005d d4bd a663 583e c565 01be b69b 55bc
00000040: 03fa 173d d850 9f3e 9931 1abe 09b5 483e
0.16066311 0.27472222 0.005704746 0.013274613 0.33135214 -0.09692409 -0.0037293707 0.0908375
0.030765038 0.24533719 -0.037077386 0.029458953 -0.10369301 0.21131763 -0.12636478 -0.013037613
0.037103664 0.31116366 -0.15057983 0.1960031

base.8linear.weight f4 [2, 20]
00000000: 32cd 4ebf d9f7 533f 4e3d 9f3e d2e6 0e3d
00000010: cf42 93be a410 86bc 677f 8bbc 5d05 c5be
00000020: 961b 223f 3c89 cd3d 8361 1cbe 98ec cd3e
00000030: 4727 01bf ad9f 9cbf 3550 c23e fefa 91be
00000040: 7ec0 03bf 1b09 7f3e 3af5 23bf c77f 053e
00000050: 0eda 453e 4dab 00be 8ae8 b4be 36bf da3e
00000060: 2116 a53e 8d51 253f c4fe 2a3f 1ef5 aabe
00000070: 5822 713e 4502 d5be 3781 ef3e 5cb3 57bf
00000080: 3aed f0be 9b66 02be 2eec 803e 7986 a63e
00000090: dd6c e23d 3e51 043f 84cc 4cbe 8b98 77be
-0.80781853 0.8280006 0.3110146 0.034888096 -0.28761908 -0.016365357 -0.017028524 -0.38480654
0.6332334 0.10035941 -0.15271573 0.4021957 -0.5045056 -1.2236229 0.37951818 -0.28511804
-0.51465595 0.24905817 -0.6404606 0.13037024 0.19321463 -0.12565346 -0.35333663 0.42724007
0.32243446 0.6457756 0.6679499 -0.33390135 0.23548257 -0.41603294 0.4677827 -0.84258056
-0.4705599 -0.12734453 0.2518019 0.3252447 0.1105592 0.51686466 -0.19999892 -0.24179284

base.8linear.bias f4 [2]
00000000: 0000 0000 416d 32be
0.0 -0.1742449
