NS_model_train.pt (torch, 18345 bytes, 18 tensors)

base.0linear.weight f4 [20, 3]
00000000: 1ff7 1bbd c2d9 3a3e f18a 5abc 4fb4 28be
00000010: 0e2a 1c3f 3272 363d 6523 c9be a6c8 25bf
00000020: 9f75 0e3d f903 a6bf 8cde cd3d 0abe 903c
00000030: f404 0f3e d36d 92be 8921 07be b6aa 96be
00000040: 79bf c0be d513 2f3e 5f8e f73e 7984 c73e
00000050: 341f dfbe 43ae 4cbe 7dfd 05bf f0ea c13d
00000060: edf4 0c3f 917e 8cbe 0f48 2cbd ee24 f63e
00000070: d8b5 8f3d b285 cabe b494 9cbe d012 8f3e
00000080: 1e99 973e ffba 41be db46 9f3d 2075 533e
00000090: 1036 99be 0676 4dbe 9b76 84bd 0d7e 8fbc
000000a0: 59d3 473e 13ea fc3c 844f 9a3d 00c5 0d3e
000000b0: d114 be3c 07d9 2a3e c9fc 6f3e a3e5 12be
000000c0: 98d6 9b3e 8a8a 28be 54c7 87bd 465a f93e
000000d0: 6f2c 26bd bb1d 973d 0d89 c13c e878 b73d
000000e0: 53a0 71bd cf56 413e 1660 1b3e cffb 2bbe
-0.03807747 0.1824713 -0.01333879 -0.16475032 0.6100167 0.0445425 -0.39284816 -0.6475929
0.03478014 -1.2969962 0.10052213 0.017668743 0.13966733 -0.28599414 -0.13196386 -0.29427117
-0.37646082 0.17097409 0.48350808 0.38968256 -0.43578494 -0.1998835 -0.5233992 0.09468639
0.5506123 -0.27440313 -0.042060908 0.4807505 0.07017106 -0.39555126 -0.305822 0.2794404
0.29609007 -0.1891899 0.077771865 0.20650148 -0.2992406 -0.20064554 -0.06467935 -0.01751616
0.19514216 0.030873334 0.07534698 0.13844681 0.023203285 0.16684352 0.23436274 -0.14345412
0.3043716 -0.16459098 -0.06629816 0.48701686 -0.04056972 0.073787175 0.023624921 0.08958608
-0.058990788 0.18880771 0.15173373 -0.16795276

base.0linear.bias f4 [20]
00000000: bfff a33e 09c7 84be 4f83 40be aeb6 92bf
00000010: 9ee4 563f b7c8 85be d3a9 debe b96c 54bf
00000020: 6b29 f93e ae99 ce3e 22c3 cbbe 3fb2 553f
00000030: 4acb 4c3f 0a6a 92be e766 dcbe 09f6 5e3f
00000040: 97b5 9e3e 607e 06bf f851 ee3e e9b7 223e
0.32031056 -0.25933102 -0.1880009 -1.1462 0.8394259 -0.26129696 -0.4348894 -0.829784
0.48664412 0.40351623 -0.39797312 0.83475107 0.79997694 -0.28596526 -0.43047258 0.8709417
0.30997917 -0.5253658 0.46546912 0.15890469

base.1linear.weight f4 [20, 20]
00000000: 1f33 813e 0c5d d83d d6f5 533d 87ac 8e3e
00000010: 6d7d 353d d7c8 89be e88a a63c a075 363e
00000020: c253 73bd 0bdf 5439 004e 13be 7353 4fbe
00000030: 3b80 61bd a4e5 3a3f ce62 b63e b5fd d7be
00000040: 48bd 17be 114f 4e3e fd9a 36bd 7a46 c93d
00000050: c5d6 a23c bcd0 adbe f0f3 1c3e 41af b63d
00000060: bac5 303f 8c76 1bbe f170 cfbe c52c cabe
00000070: 4f50 eb3c cecf 18bf d724 623d 9900 18bd
00000080: bbf6 efbd b820 18bf be85 1abe e164 8e3f
00000090: 8654 533d 5044 a6bd 811e 033f b11c 603f
000000a0: 26b7 b33e d112 2bbf 1e8d 023f 2651 00be
000000b0: d394 9e3e ca1b 853e 4bde 1c3e f51c a23e
000000c0: 4b7a b53e c8d5 81bd 5a35 dc3d 186a 043e
000000d0: d677 d5be 8399 ebbe 6842 703e 71cd 95bc
000000e0: 4cab a93e 3895 473d d953 b03c 5b03 113e
000000f0: e514 093f 9044 233e e7ab 0e3e aabe 97be
00000100: 19f2 7abe d61a 9abd 508b 1e3e 36a8 253e
00000110: 1642 17be ede1 11bf 6371 f6be 09b9 d3be
00000120: 5e1e c6be d56e 123f d3c5 203f 6045 a03e
00000130: 0441 0b3e cc3c c0bd 7191 703e 5cae e8bd
00000140: c1fa 783e 8871 7c3f efac d23e bd5f 193e
00000150: 25b1 873e 16ba 34be e7aa fcbd 9675 b73d
00000160: a834 46be 42a9 6abd 86dc b63e df46 6e3e
00000170: 844a 053f 08b9 4e3e c154 3fbf 2af3 193c
00000180: 33d9 bcbe 90ee 38be e3a2 adbe af8d 033d
00000190: 5fff 24be cf1e aebe 4139 b3be 91d6 82bd
000001a0: 4bf1 fd3c 33dd b2be 50de 04be 2e3d ba3c
000001b0: cfca 8e3d fa10 4bbe 2067 d3be 1740 0ebe
000001c0: 0dcd 9a3e 607b b4bd 8315 853d 0aaf adbe
000001d0: 2e38 143e 624c bcbd fea0 98be 3cc5 9cbc
000001e0: 6d32 673f 6cc5 833e 4fc8 88be 0b15 19be
000001f0: bca2 433e bbcb 58bf 18a8 473d 72e2 29bf
00000200: 2733 c2be eb1e bfbe 32d7 903e efab c23e
00000210: 5e65 123e 86d0 1d3f 9003 11bf 07c8 ef3d
00000220: e2bf 25bf fd36 88be 25b6 6e3d b574 94be
00000230: 1a0d bbbe 6648 3ebf 4e42 1d3f 067c c13e
00000240: e09d 143e f008 8cbe aefc 94be 49d7 a13e
00000250: 97a4 c23e c19a 2d3e ba3e e03e 7472 243f
00000260: 15d5 9e3d 7b84 12bf 4515 4a3e 299e 85be
00000270: ee34 e93e a4e4 f8bd f97f 533e eb5a 99be
00000280: 614b 523f 94ae f7be 19fc b83e 024c 8cbe
00000290: 07ec 253e 8231 943e ec97 a93d c19b d93d
000002a0: 9056 c8be e74d 0a3f d459 80bf f430 b43d
000002b0: 1a10 68bd caa6 213d fade 043e 0d8e 2d3f
000002c0: a2cd 3e3d 2f7f 3ebc 121c f73d 594b c63d
000002d0: b551 b33d 28d9 343e d0b2 a43d bbea 9fbe
000002e0: 5b16 933e 667b 48bd bebb 4c3d 6949 debb
000002f0: 1015 7d3e 1476 bc3d 418b 19bd 31c7 913e
00000300: 7269 f93e 8b98 003f cbd7 213e 8a91 a83e
00000310: 26d4 633d 099b 98be 83c0 3d3d 3b7f 57be
00000320: e01e 603e 91e1 3fbd 1eb8 31bf 23e5 153e
00000330: 6fee 17bd 0d4a a6bd 61b7 433e b636 d43e
00000340: b18c c23e d38b dcbd 3076 a73e 3602 fdbd
00000350: e73d 86be 3d42 11bf 80bf 1abd c723 42be
00000360: 4f41 a43e 9bbd 843e 4584 c93e 6540 41be
00000370: f0b8 80be 56d0 313f 7497 45bf a3de efbe
00000380: b2e3 91bd 1367 8b3e 6ae3 e6be 975c 8bbc
00000390: 7443 7d3d e2ff df3e 021f 7a3e 27d5 3f3e
000003a0: 623b 2f3f 51c9 e9be cfe9 cfbe ac5b 2bbf
000003b0: 49f5 aabe 179f f83d 69e1 33bf e6be e4be
000003c0: ad4b a33e befc 0a3e 4415 b3bc 1cba 81bd
000003d0: f808 ebbe b402 633e 42c9 603e 4607 89be
000003e0: 3b16 1b3e 6156 cf3e 3a2c 10bf 234b cf3e
000003f0: fef3 9bbb 3a13 113f f67c abbe e867 513e
0.25234315 0.10564622 0.05174812 0.27866003 0.04430907 -0.2691104 0.020329908 0.17818308
-0.05940605 0.00020300985 -0.14385223 -0.20246677 -0.05505393 0.73006654 0.35622257 -0.4218575
-0.14818299 0.20147349 -0.044581402 0.098278955 0.0198778 -0.33948314 0.1532743 0.08920146
0.69051707 -0.15181941 -0.40515855 -0.3948728 0.028724818 -0.59692085 0.055210914 -0.037109945
-0.11716982 -0.59424925 -0.15090081 1.1124536 0.05159428 -0.08118498 0.5121842 0.8754378
0.3510067 -0.66825587 0.5099658 -0.12530956 0.3097292 0.25997764 0.15319173 0.31662717
0.35444865 -0.06339604 0.107523635 0.12931097 -0.4169299 -0.46015558 0.23462832 -0.018286439
0.33138502 0.04872629 0.021524357 0.14161436 0.5354751 0.15944123 0.13932763 -0.29637653
-0.24506415 -0.0752465 0.15482831 0.16177449 -0.14771304 -0.5698536 -0.48133382 -0.41352108
-0.38695043 0.57200366 0.62801856 0.3130293 0.1359902 -0.09386596 0.23492981 -0.113613814
0.24314405 0.98610735 0.41147563 0.14977928 0.26502338 -0.17649111 -0.123372845 0.089579746
-0.19356024 -0.057290323 0.3571512 0.23269223 0.52066827 0.20187771 -0.747387 0.009396354
-0.3688446 -0.18059754 -0.33913335 0.032117542 -0.16113041 -0.3400788 -0.3500462 -0.063885815
0.030998847 -0.34934387 -0.1297543 0.02273425 0.069722764 -0.19830695 -0.41289616 -0.13891636
0.30234566 -0.088125944 0.06498244 -0.33922607 0.14474556 -0.09194256 -0.29810327 -0.019137017
0.9031132 0.25736558 -0.26715323 -0.14949434 0.19105047 -0.8468587 0.04874429 -0.66361153
-0.3792965 -0.37328276 0.2828918 0.380218 0.14296481 0.61646307 -0.5664606 0.11708074
-0.64745915 -0.26604453 0.058279175 -0.2899529 -0.36533433 -0.7432922 0.614293 0.37789935
0.1451335 -0.2735057 -0.2909903 0.31609562 0.38016197 0.16953565 0.43797857 0.6423714
0.07755486 -0.572334 0.19734676 -0.2609723 0.45548195 -0.12152985 0.20654286 -0.29952177
0.8214627 -0.4837538 0.36129835 -0.2740174 0.16203319 0.2894402 0.0828093 0.10625411
-0.39128542 0.5402512 -1.0027413 0.087983996 -0.05665598 0.039465703 0.12975684 0.6779488
0.046582825 -0.011627003 0.12065901 0.0968234 0.08755819 0.17660964 0.08041918 -0.31233773
0.28727993 -0.048945807 0.049983732 -0.0067836535 0.24715066 0.09202209 -0.03748632 0.28472283
0.4871326 0.5023276 0.15804975 0.32923537 0.055622242 -0.29805782 0.04632617 -0.21044628
0.21886778 -0.046845976 -0.69421566 0.1463819 -0.037092622 -0.08119593 0.19112922 0.4144799
0.37997964 -0.10768857 0.32707357 -0.12353937 -0.26219103 -0.56741697 -0.037780285 -0.1895896
0.32081077 0.25925907 0.39358726 -0.18872221 -0.25141096 0.6945852 -0.77184224 -0.46849546
-0.071235076 0.27227077 -0.45095378 -0.017011924 0.061831906 0.4374991 0.24425891 0.18733655
0.68449986 -0.45661405 -0.4060807 -0.66936755 -0.33390263 0.12139719 -0.70265824 -0.44676894
0.31893674 0.13572976 -0.021860726 -0.06334326 -0.4590528 0.22169 0.21951774 -0.26763362
0.15145199 0.4049559 -0.56317484 0.40487012 -0.0047593107 0.5666996 -0.33493775 0.20449793

base.1linear.bias f4 [20]
00000000: 1243 423c 4ce8 54bd 50d1 0e3d 5e69 bc3d
00000010: 6fc3 d03d 55e0 bd3c 50ea 2abe 25d4 83bd
00000020: 2323 9cbe 275c 9c3d 9d61 11be 0b05 8e3e
00000030: b067 823c 4323 07bd c792 dfbd c3cf 0abe
00000040: c29e 353d 7670 973d 1475 e83d 8534 e2bd
0.011856811 -0.051979348 0.034867585 0.09199785 0.10193526 0.023178259 -0.16690946 -0.06436948
-0.30495557 0.07634764 -0.14197393 0.27738222 0.015918583 -0.032992613 -0.109166674 -0.13555817
0.044340856 0.07394497 0.11350456 -0.110451736

base.2linear.weight f4 [20, 20]
00000000: 698f cd3d cd95 903e cf4b 223f 7293 0fbe
00000010: b4da 3c3e 7b8c 15bd bc13 ebbe 8b0e 3e3e
00000020: d39b fd3d acec 23bd 6e11 c5bd fb0f b83e
00000030: 6519 f9bd 27fa 053e 4a21 443c 1e38 4dbe
00000040: c9a1 72be c82b 673f 7cc1 b3bd d1c8 d93e
00000050: 4806 113f 8fda 8abf 9738 12be 83f9 06bf
00000060: 2760 b9be dcbc 6d3e f296 1cbe 37fb 7b3d
00000070: b4c7 123d 3078 2d3d 9959 8e3d 8dab 34be
00000080: 3cd2 133f ba81 b4bf ad07 e33e 522f efbd
00000090: fad6 3fbf eb5e ad3c 2de9 123e d533 06bf
000000a0: 0552 54be 2ea7 27bf 9cf4 e6be 8815 6a3e
000000b0: 30af 5c3e 275a 2dbf 9521 393d 6e3d bbbe
000000c0: 507b 2cbe e245 073f ecdd 29bf 57fd 84bd
000000d0: e5d3 fc3e 04a7 463f 894f 933e cd47 88bf
000000e0: a6cd 6fbe 1edd 0d3e b28e 8b3d c7d3 453f
000000f0: d7dc 9f3e cbe4 31bf 85d7 fdbc 0633 c13e
00000100: 8dbe 49be eb14 243f f6d1 9dbd bcfa 4fbd
00000110: eb6b 6f3d 796a 703e f373 3abe 4f9b 5abd
00000120: 60c3 c43e adbe 03bd 5dd1 2b3e 17ed 0b3d
00000130: f80a 07be 10dd f3bc 0a1b bdbe eae5 3ebd
00000140: 1651 613f 2808 de3e 5d24 cb3d 976b 243f
00000150: b6e5 a23e cc41 283d e1f6 babd 97e4 64be
00000160: e80f a1bd 5ecf 6abe 5cae 603d 9848 00bd
00000170: e790 a8bd b962 ffbe 86f1 11bf 67f6 dc3e
00000180: 97eb 25bf 2811 4b3e 026e a8be 1c68 8d3d
00000190: a1d4 e5be db54 fd3c da66 21bd f2e6 d13d
000001a0: dd2a 22be 116f 033f 628e 023e 4fc3 023e
000001b0: fb9e 533e d9f8 c2bd 7529 053f 9cdc 153e
000001c0: 0ceb 2cbe a866 e1be b84d 8dbd 0113 433e
000001d0: 54cc 3f3e 23a6 313e 0d5d f6be be97 ecbc
000001e0: 97f3 eabe a9a6 82bf 3203 2fbe 1459 07bf
000001f0: 366e 073e 1624 f8be f447 8f3e d2aa 5c3e
00000200: 8de2 453e 9f4b 383b 72e5 17bd a066 aa3d
00000210: 9197 343e 24e0 0b3c fee7 17be b6ca 29bf
00000220: 601c bd3d 17c9 573e c8d3 9c3e cb74 2abd
00000230: 4996 39be f353 28be 2da2 313d 1ff9 1abf
00000240: 9d98 a83e ac08 553e 9e80 71bd 68c9 7a3e
00000250: c0f3 ca3e 0e18 45bd 7d71 613f d124 49be
00000260: 70f1 753e 4182 66be 0bc4 2e3e 8354 c93e
00000270: 2e9a eebe aa7c e0bd 47f9 233e 01e8 5b3e
00000280: 2c81 9cbe efcb 9dbe 110d 403f 6e59 613e
00000290: fb2c 873e 88d8 98bf a5fc 76be cc21 8c3e
000002a0: 6247 e83d eb48 01bf a275 1bbf 0985 6b3e
000002b0: 6455 99be 8e8f 0ebe 71d4 14be f7ef 943c
000002c0: 3f27 2e3e b61c 603e 1147 813e 7cd0 e23e
000002d0: cade dcbd 7ebf b83e 9c67 81be dbf7 16be
000002e0: 4d6c d43c b633 c0be 78f5 083f 3361 abbe
000002f0: 630b 11be 9411 e4bd 494c f5be 7e60 9dbe
00000300: 47b2 533d 302b 9bbe 3d2f 63be 52ff 15bf
00000310: a7c0 d2bd 6bd5 0ebd 2a3f 32be de2b 953e
00000320: b86a c63d 5b45 ad3c 1648 5dbe 52db 673e
00000330: 0646 afbd 942b fabb b9f2 853e 25a6 213e
00000340: 8915 23bd c383 f73d 0efc 063f 1f06 423d
00000350: a83e ec3e 4117 733e 7879 a1be 6ae7 1dbe
00000360: b4ad 563d 52cd 1fbd 5e34 823e 6f47 48be
00000370: 665f 513d 66dd 2cbe f6d8 8b3e 4a9e 193f
00000380: a320 bebe ce82 d5be 1393 54be 5865 433c
00000390: 5edb 983c 717a 553e e52f 983d 5ce6 f93e
000003a0: 0aa0 353e 879f 793c bc47 cd3d d870 bfbe
000003b0: 3675 17bd 32d9 f63d 17c9 3ebd 42c3 1cbf
000003c0: 5bb2 43bf 9f60 40bd 89dd c03d fd5e 19bf
000003d0: 19de a6bd e5be 49be 0bd5 59be 3ec1 543e
000003e0: 1cb7 9d3e 337b 9fbe 54b6 b9be 7c86 dbbe
000003f0: 34b1 223f db34 b63d 39eb 733f 42aa 573f
0.10037119 0.2823929 0.63396925 -0.1402109 0.18442804 -0.036510926 -0.45913494 0.18560235
0.12383237 -0.04002063 -0.09622465 0.35949692 -0.12163047 0.13083707 0.011970827 -0.20040938
-0.23694529 0.9030118 -0.087771386 0.42536023 0.5665021 -1.0847949 -0.142794 -0.52724475
-0.3620617 0.23216575 -0.15291956 0.061518874 0.035834983 0.042350948 0.06950683 -0.17643566
0.5774267 -1.410209 0.44341794 -0.116789475 -0.74937403 0.021163424 0.14346762 -0.5242284
-0.20734413 -0.6548947 -0.45108497 0.22859776 0.21551204 -0.67715687 0.045198042 -0.36570305
-0.16843915 0.5284101 -0.6635425 -0.06493633 0.49380413 0.77598596 0.28771618 -1.0646912
-0.23418292 0.13853881 0.06814326 0.7727627 0.31223175 -0.69489735 -0.030986557 0.3773424
-0.19701596 0.6409442 -0.077060625 -0.05077623 0.058452528 0.23478116 -0.18208294 -0.05337077
0.3843031 -0.032164264 0.16779085 0.034161653 -0.13187778 -0.029768497 -0.36934692 -0.046605982
0.8801435 0.43365598 0.09919045 0.6422667 0.3181588 0.041078374 -0.0912912 -0.22352825
-0.07864362 -0.22930667 0.054853782 -0.03131923 -0.08230763 -0.49880007 -0.5700916 0.4315674
-0.64812607 0.19830763 -0.3289643 0.06904623 -0.44888785 0.030924251 -0.039404728 0.102491274
-0.15836664 0.5134135 0.12749627 0.12769817 0.20666115 -0.0952012 0.52016383 0.14634937
-0.16886538 -0.44023633 -0.06899589 0.19050218 0.18730289 0.17348532 -0.48117867 -0.02888095
-0.4588897 -1.0207111 -0.17091063 -0.528703 0.13225636 -0.4846503 0.27984583 0.21549538
0.19324704 0.0028121246 -0.03708405 0.083203554 0.17635943 0.008537326 -0.14834592 -0.6632494
0.09233928 0.21072803 0.30630326 -0.04161529 -0.18123735 -0.16438274 0.043367554 -0.6053638
0.32928935 0.2080409 -0.05896055 0.24490893 0.39639091 -0.048118643 0.88063794 -0.1964295
0.24017882 -0.22510625 0.17066972 0.3932229 -0.46602005 -0.10961278 0.1601306 0.21475221
-0.305673 -0.3081965 0.7501994 0.22006771 0.26401505 -1.194108 -0.24119814 0.27369535
0.1134174 -0.5050189 -0.6072637 0.22999968 -0.2994796 -0.1392195 -0.14534165 0.01818083
0.17007159 0.21885952 0.25249532 0.44299686 -0.10784681 0.36083597 -0.2527436 -0.14742987
0.025930548 -0.37539452 0.53499556 -0.33472595 -0.141645 -0.11136165 -0.47909763 -0.3073768
0.05168369 -0.30306387 -0.22185989 -0.5859271 -0.10290652 -0.0348715 -0.17406908 0.2913503
0.09688324 0.021151235 -0.2160953 0.22642258 -0.08558278 -0.0076345894 0.26161745 0.15786035
-0.03981546 0.120856784 0.52728355 0.04736912 0.46141553 0.2373934 -0.31537986 -0.15420309
0.05241175 -0.039014168 0.25430578 -0.195585 0.05111637 -0.16881332 0.27313966 0.60007155
-0.37134275 -0.4170136 -0.2075923 0.011926018 0.01865929 0.20847489 0.0743101 0.48808563
0.17736831 0.015235788 0.10023448 -0.3739078 -0.036977015 0.120531455 -0.046578493 -0.6123544
-0.76444024 -0.046967145 0.094172545 -0.59910566 -0.081478305 -0.19701727 -0.21272676 0.20776841
0.30803764 -0.3114868 -0.36271918 -0.4287604 0.6355164 0.088968 0.95280796 0.8424417

base.2linear.bias f4 [20]
00000000: cd07 ea3d bc6b 6ebd f972 6f3d 8e94 09bd
00000010: a403 923d 36d9 993c c515 8dbd 8ddb fe3d
00000020: b998 863d 0293 a2be edec 8b3e 7900 2b3e
00000030: 88de 33be 72e2 743e de03 62be 077a 4e3c
00000040: f439 31bb 6992 74bd e32d 8c3d 8a23 b53d
0.11427269 -0.058208212 0.058459256 -0.03358894 0.07129601 0.018780332 -0.06888918 0.1244422
0.06572098 -0.31752783 0.27329198 0.16699399 -0.17565358 0.23914507 -0.22071788 0.012602336
-0.00270426 -0.05970994 0.0684469 0.08844669

base.3linear.weight f4 [20, 20]
00000000: 7245 2b3e cfa2 35bc 62da 133d c07a 69bf
00000010: 3b40 b93e f2cf 743e 4620 973e b725 003f
00000020: 797b d93e 28bb 84be 913e dd3d 6092 47bf
00000030: 286d e63e e810 81bd 8c03 4b3f ce85 ad3e
00000040: 7129 7ebd 0e63 ffbe b604 823f 3b61 eb3e
00000050: 6381 923e fa77 b8bd a4c0 cd3d f512 72bd
00000060: 3b8e bf3e 252b 60be 89db 263f 5b86 32be
00000070: b709 963c 16e5 0fbe 9e15 1d3e e1dd 0fbf
00000080: c30e 10bd 2306 09be 1d93 6f3f baa4 ccbd
00000090: 662c 463e ef61 cbbe e06c d93e 7777 1a3f
000000a0: 3cb2 1fbe 2056 5b3d a195 b3be 7529 12bf
000000b0: 6c71 13bf 1ab5 d43e 7c1e 29be 87b9 eabc
000000c0: 57d0 d63e 029e f93e d834 3c3c 87fd a1bc
000000d0: e0dd 2dbf ab33 d83e be55 823d 2968 0f3e
000000e0: 1657 13bf 7561 b43d aeff 4cbe 681a cb3d
000000f0: 31c4 bc3e 5328 bb3d ce7c 34be 8ba5 9f3e
00000100: 9213 e8be 31a8 79bd 91ad 8a3e 6411 52be
00000110: ffac 3e3e 3c4e 52be 4ee0 04be 33ec 923c
00000120: 30fa 0d3f 7951 6abe e568 e83d c75a 8f3c
00000130: a7bb 3fbe 0f58 28bf 2718 603e 5ff3 3d3f
00000140: 00db 7bbe 7ce1 25be 8622 cbbd 8210 ddbe
00000150: 2fe4 cdbd 3e77 4cbe 7a3e 0bbe a9be c7be
00000160: ae1a 103e 994e 34bf 5973 843e 22a2 ee3e
00000170: a5f4 7c3e f019 0a3e 526f 353d 6766 c2be
00000180: 45f4 12be 46c4 213f cdc7 16be d03d fb3d
00000190: edaf 76be d950 a8be f216 013e 6e73 503d
000001a0: 633d 7b3d 655b 99be 81d5 dc3e 58ed 8bbd
000001b0: 6316 323e f918 bcbe 5622 c63e aacf 4a3d
000001c0: 8894 5ebd d734 2cbe 77c1 90be a252 b33e
000001d0: 7b58 b83d 9c29 d33e d8c3 30bd 222f 993e
000001e0: 6058 4e3e 5275 9f3e 8006 bdbe 1136 c0be
000001f0: 0c8b 683f 9da2 36be 73d6 5d3e d0da d4be
00000200: 7492 d2be 7c92 4a3d ea7d 893d b64a 923d
00000210: c44a 1dbe 9c5e fa3d e603 3e3e d4ac 95be
00000220: 07d7 58bd dfc8 77be 6851 d8bd 41d8 a7be
00000230: 42ea 12bf b020 abbe 3efb e0bc 0645 6cbe
00000240: cfec a3be 4714 db3e f03f e4bd 93fa 89be
00000250: d4ef 8a3e 5740 b4bd 7ccf e6bd 0384 b33d
00000260: a469 fe3e fd4e 4a3e 81f5 393f df70 493d
00000270: f991 b63d a81d 323e 9db8 18bf 0f9c 2d3e
00000280: 4897 8bbe 813b 9a3e 19cb 25be 1404 60bd
00000290: 0078 c13e f333 1b3e 1e57 f93d adaf 02be
000002a0: 6880 15bf 9f1c 11bf ef56 843e 3caa 593e
000002b0: 64aa f43d 6841 0d3f 492d 9a3e c87b 123f
000002c0: 477a 6cbe dada 1a3f af5f acbd a616 35bd
000002d0: fd45 df3d 2984 72be c50a d7bd 54a0 053f
000002e0: f4ae e0be b53a a53d 48d3 4dbd c766 49be
000002f0: 89c2 a2be 37ca 55ba c762 08bf 6d95 01bf
00000300: 0f65 99bd 2a36 b3bd f263 16be dfd9 023f
00000310: 4028 9bbe c230 fdbd ffe8 b03c 6ac3 f7be
00000320: f9e9 b13d ad79 aabe cb28 503e 026c 983e
00000330: c559 60be eaa7 20bd 04f2 e03e d769 803e
00000340: d63e 0b3e 8f5d 8c3e 3762 463d 254c 9f3d
00000350: 16eb 33be 8ca5 2bbf 0307 143e f9a5 243f
00000360: a026 36bf 3810 f5be 97ff ac3b d03a 9f3e
00000370: 5b71 a73e ecac c63e 6300 b1bd 43f4 d13e
00000380: 05a9 eabc d01c de3d 9845 c43e 52aa b93e
00000390: a3f7 2bbd 3edc 893e 2980 4d3e 36f9 99be
000003a0: ffd5 043f 6d29 d8be a13c 463e a6d1 1e3e
000003b0: 1f48 efbe d0fb 603e b14f 45bd 7f2f c13e
000003c0: 8abf 913e b4a6 813e 8f17 903e 9f07 2fbf
000003d0: 8a9d 94be dbcb 1e3e b6c7 163d bd66 1d3e
000003e0: e080 5bbe dbc5 153f f865 973e cdf1 35be
000003f0: b796 9abe e692 ed3e 4a79 f53d 3790 29be
0.1672571 -0.01108618 0.036096938 -0.91202927 0.36181816 0.2390745 0.2951681 0.5005755
0.42477015 -0.2592404 0.10802949 -0.77957726 0.45005155 -0.06302053 0.7930229 0.33891147
-0.06205124 -0.4988026 1.0157688 0.45972618 0.2861434 -0.09007259 0.10046509 -0.05910011
0.374132 -0.21891458 0.65178734 -0.17434065 0.01831518 -0.14052233 0.15340278 -0.56197935
-0.035170328 -0.13381247 0.9358385 -0.099923566 0.19352874 -0.39723155 0.42465878 0.6033854
-0.15595335 0.053548932 -0.35075095 -0.5709451 -0.57594943 0.4154442 -0.16515535 -0.02865292
0.41955826 0.48753363 0.011487208 -0.019774212 -0.6791668 0.4222692 0.0636401 0.14004578
-0.5755476 0.08807651 -0.20019409 0.09917146 0.36868432 0.091385506 -0.17625734 0.31180987
-0.4532743 -0.060951415 0.27085546 -0.20514446 0.1862068 -0.20537657 -0.1297619 0.017934894
0.5545988 -0.22882642 0.11348132 0.01749934 -0.18723927 -0.65759367 0.21884213 0.7419948
-0.2459526 -0.16199297 -0.09918694 -0.43176657 -0.10053288 -0.19967362 -0.13598052 -0.3901265
0.14072677 -0.7043243 0.25869253 0.46608073 0.247027 0.13486457 0.044295616 -0.37968752
-0.14350994 0.63190114 -0.14724655 0.12267649 -0.24090548 -0.32874182 0.12606409 0.050891332
0.06133784 -0.2995254 0.4313164 -0.06832379 0.17391352 -0.36737803 0.3869807 0.04951445
-0.05434087 -0.16817032 -0.28272602 0.3502398 0.09001251 0.41242683 -0.04315552 0.29918772
0.201509 0.31144196 -0.36919022 -0.3754125 0.9083717 -0.1783547 0.21663837 -0.4157319
-0.4112736 0.049456105 0.06713469 0.07143156 -0.15360552 0.122250766 0.18556175 -0.2923342
-0.05293944 -0.2419772 -0.10562402 -0.32782176 -0.573887 -0.33423376 -0.027463552 -0.23073205
-0.32016608 0.42788908 -0.111450076 -0.26948985 0.271361 -0.08801334 -0.11270043 0.087654136
0.49689972 0.19756694 0.72640234 0.049179908 0.08914561 0.17394125 -0.596567 0.16954063
-0.27263856 0.30123523 -0.16190757 -0.05469139 0.37786865 0.15156536 0.121748194 -0.12762327
-0.5839906 -0.566843 0.25847575 0.21256346 0.11946562 0.55177927 0.30112675 0.57220125
-0.2309352 0.6049019 -0.08416688 -0.044211052 0.10902021 -0.23683228 -0.10500101 0.52197766
-0.4388348 0.08067838 -0.05025032 -0.19668113 -0.31789044 -0.00081554375 -0.5327572 -0.5061863
-0.074899785 -0.08750565 -0.14686564 0.51113695 -0.30304146 -0.123628154 0.021595476 -0.48391277
0.08687205 -0.33295956 0.20328061 0.29769903 -0.21909244 -0.039222635 0.43934643 0.2508075
0.13598189 0.2741513 0.04843351 0.07778195 -0.17570147 -0.6704948 0.144558 0.64315754
-0.7115269 -0.47863936 0.005279492 0.31099558 0.3270367 0.38803804 -0.08642652 0.4100667
-0.028645048 0.10845339 0.38334346 0.36262757 -0.04198421 0.26925844 0.2006842 -0.30072945
0.5188903 -0.42219105 0.19359066 0.15509662 -0.46734712 0.21971059 -0.048171703 0.3773155
0.28466445 0.25322497 0.28142974 -0.68371004 -0.29026443 0.15507452 0.036811553 0.15371223
-0.2143588 0.5850503 0.29569983 -0.17768021 -0.3019311 0.46401137 0.11986025 -0.1655892

base.3linear.bias f4 [20]
00000000: d3cb 09bd 6a3c 57be ee45 0a3d bfd7 773e
00000010: 4210 663d 1cee cabc b9c3 d13d 003a 7fbe
00000020: 75ef 473e 914c 143e d442 cabc 643a 103c
00000030: 82e6 ef3d bbea 713d 89ef 53bd 6f76 1ebc
00000040: af36 05be 500f 91bd f0a0 a73d aee2 3b39
-0.033641648 -0.2101914 0.033758096 0.24203394 0.05616785 -0.024771743 0.10242409 -0.24924469
0.1952494 0.14482333 -0.02469007 0.008802984 0.11713888 0.059061747 -0.05174211 -0.009671791
-0.13009141 -0.07082999 0.08184993 0.00017918154

base.4linear.weight f4 [20, 20]
00000000: bffc 95bc 44e1 90be adc2 b23e 5497 b1be
00000010: 47bc 463f a4c6 bc3e aa61 013e a58f b8be
00000020: 75c5 a83d 3dc8 4bbd c822 a43c a496 a93e
00000030: d508 ad3e 1b0a 893e 991d 643e 2666 76bd
00000040: 5b2b 2a3c b679 7dbe df24 87bd 7db2 8fbc
00000050: 8cc7 233c bb1d 16bf d950 233f 62c1 8cbe
00000060: deb6 483e 5533 f2bd e8fd e63c 3732 06bf
00000070: 7ce8 5b3e 4ddf 973e e50b 583f ccc9 223f
00000080: bb56 01bf 5162 0f3f 0855 a33d 0f99 e6bc
00000090: 0491 963e 4872 013e 1be5 0dbf 41a2 3fbd
000000a0: 12b8 8e3e 86a5 b43e cc13 41be deac 4cbf
000000b0: 1b35 c4be d443 d63e 59d7 9abe 52e0 bbbe
000000c0: c060 cfbe ccb2 6cbd f5ad 323e 336f bebe
000000d0: a027 41bf 74a7 a23e 71b8 0ebd 243c e6be
000000e0: 99ed c1bd 8b88 9d3e 5979 81bd a0e7 2b3f
000000f0: a142 84be a7c5 273e 7b63 bd3d eedb cd3d
00000100: ce0a 793e 774e f73e adf8 7dbc 1c01 6b3d
00000110: 34b7 9ebd dfbc 4fbe 3c8b 853e 6648 36bd
00000120: 44e3 15be ef18 87be d432 80be 64ac 0dbf
00000130: 671c 50bf ff38 3a3e 4fa3 eabd d394 01bf
00000140: 72ba dabe f5f5 a3be d0bf cc3e d79d 0a3f
00000150: f1a8 81be c34b 2fbe a3b4 62be e5b0 b83d
00000160: c40b 0dbd 4dc6 f93e 0d0c d83e 59f9 1bbf
00000170: 6b0c b53e 5da1 ee3c bb51 043f 51bf 3ebe
00000180: c9bf d73d 6f7d 28bf 8477 bc3e 8ecb 443e
00000190: e01d fdbe cb25 45bf 83b9 d93e 8251 8cbe
000001a0: c386 dcbe 4cac ad3d d168 393e 0c93 913e
000001b0: eedd 993f 2e5e e4bc 6efb 63bf fbe6 d5be
000001c0: 0756 20be db37 fd3d 5c17 943e 6e6e d83c
000001d0: 5a74 4fbe f4ba bf3d 6a32 a63d 61d6 823e
000001e0: f67a 493e baee 9d3e 4930 1c3e f47c 663e
000001f0: 2cf3 b6be c896 22be ae2e 3b3f 3d59 223f
00000200: c403 74be f3b2 cb3e 8159 acbe 1065 533e
00000210: 2ba3 06bf 8c88 5dbf f9bc b4be bafc c9bc
00000220: f677 0dbf a3f4 08be 29bb 373d 37a5 27be
00000230: a835 c2be 514f 64be f0dc 393e 3b14 a9be
00000240: 17b7 cb3d a765 683e 197d 6e3e 13c1 32bf
00000250: 6cb7 223e 5863 47be d469 043c f86c 4abc
00000260: 0396 8f3e afa2 39be 4664 463f 96a6 53be
00000270: 14c6 f3be 8b25 cdbe 9a4d b4be 1b02 a4be
00000280: 0d62 fa3e 0588 173e 9650 20be bfca 9abe
00000290: 1e21 49be c6e5 9cbe 82be 28bf b6d4 81be
000002a0: 1d08 903e 9a53 d3be b3f1 3dbe bdab a63e
000002b0: 40b3 16bf cbad a23e 835d 9abe f49f 95be
000002c0: 50e9 2e3f 2f1b 003e 0b8f 903c 49e2 59bd
000002d0: 449b b6be feda 3bbe 50f6 08be 6ff9 14bf
000002e0: f1b7 083f f982 983e e2fb 6c3e 8c18 63be
000002f0: 1931 c13e 9f23 bb3e aa26 0fbf 2045 97be
00000300: a9cf d3be 36d0 c83a 1cbd d93d a5a1 b63d
00000310: ce2d 40bf 5769 22bf aa63 57bf 5673 193f
00000320: 0798 debe f038 c5be fc52 a03e dc11 1fbf
00000330: c265 1bbe 82ea 803e c62b f43e d84b 39bd
00000340: b353 11be 904e 013f ab35 093f 930b 6fbd
00000350: 66ea 0fbe d35b fabe eecd 50bd 52c9 dfbc
00000360: a3c3 273e eb9d 623f 429c d43d f535 863f
00000370: 0889 4d3d 68fe b73b d6c9 d2be 7119 adbd
00000380: 8466 66bc b741 9d3e 6b63 1c3d 3a3c b1bd
00000390: 01cd 4bbe 02f3 69be 09d4 0c3f 74e3 543d
000003a0: 783a 49be c2c1 81be c0aa e43e def0 5d3e
000003b0: 7c28 83be 3c10 653e 4fe5 f6bd 4f5c 66bd
000003c0: 9aff bbbe 85da c73e ab2e 8ebe 3111 0e3e
000003d0: 0ec0 44be bfc0 1abe 245d 163f b509 593e
000003e0: c735 9e3e dc80 2fbf 4d45 01be 35a6 f7be
000003f0: 63d7 66be df62 983e ce94 b4be 5e54 263e
-0.018308995 -0.28296864 0.3491415 -0.34685767 0.7763104 0.368703 0.12634912 -0.36047092
0.08240787 -0.04975151 0.020036116 0.33122742 0.337958 0.26765522 0.22276916 -0.06015601
0.010386313 -0.2475346 -0.065988295 -0.017541165 0.009996306 -0.58639115 0.6379524 -0.2749129
0.19601008 -0.11826197 0.028197244 -0.5242037 0.21475405 0.29662552 0.8439315 0.6358917
-0.50522965 0.56009394 0.07975203 -0.028149156 0.29407513 0.12641251 -0.5542771 -0.046785597
0.2787481 0.35282534 -0.18855208 -0.79951274 -0.38321766 0.41848624 -0.30242422 -0.3669458
-0.40503502 -0.0577877 0.17449172 -0.37194213 -0.7545109 0.31768382 -0.034843866 -0.4496776
-0.09469146 0.30768237 -0.06321973 0.67150307 -0.25832084 0.16383992 0.0924749 0.10051714
0.24320528 0.4830205 -0.015501183 0.057374105 -0.07749787 -0.20286892 0.2608279 -0.04450264
-0.14637476 -0.2638621 -0.2503878 -0.5534117 -0.8129334 0.18185805 -0.1145693 -0.5061771
-0.4272037 -0.32023588 0.3999009 0.54147094 -0.25324205 -0.17118745 -0.2213922 0.09018115
-0.03443505 0.48784104 0.42196694 -0.6092735 0.35361037 0.029129678 0.5168721 -0.18627669
0.10534627 -0.65816396 0.36809933 0.19218275 -0.49436855 -0.7701079 0.42524347 -0.27405936
-0.43071565 0.08480129 0.1810639 0.284325 1.2020853 -0.02787694 -0.89055526 -0.41777787
-0.15657817 0.12364169 0.28924072 0.026419844 -0.20259228 0.0936183 0.081150845 0.25554183
0.19675812 0.30846196 0.15252794 0.22508603 -0.357324 -0.15877831 0.731181 0.63417417
-0.23829561 0.39784965 -0.33662036 0.20644021 -0.52592725 -0.8653648 -0.35300425 -0.024656642
-0.5526117 -0.13374572 0.044856224 -0.16371618 -0.3793156 -0.22295882 0.18150687 -0.33023247
0.09947031 0.22695027 0.23289908 -0.6982586 0.15890282 -0.1947149 0.008081872 -0.012355082
0.28044137 -0.18128465 0.77496755 -0.20669016 -0.4761206 -0.40067706 -0.35215455 -0.32032856
0.48902932 0.14797981 -0.15655741 -0.30232808 -0.1964154 -0.30644053 -0.6591569 -0.25357598
0.2813119 -0.4127472 -0.18549232 0.325529 -0.58867264 0.3177322 -0.3014947 -0.29223597
0.68324757 0.1251037 0.017646333 -0.053194318 -0.35665333 -0.18345258 -0.13375211 -0.58193105
0.5340567 0.29787424 0.2314296 -0.22177333 0.3773277 0.36550614 -0.5591837 -0.29544926
-0.4136937 0.0015320841 0.10631773 0.0891755 -0.7506989 -0.63441986 -0.8413645 0.59941614
-0.43475363 -0.38520002 0.31313312 -0.62136626 -0.15175536 0.25178915 0.47689646 -0.045238346
-0.14192085 0.505105 0.53597516 -0.058360647 -0.1405426 -0.4889818 -0.05097764 -0.027317677
0.16383223 0.88522214 0.10381366 1.0485216 0.05017951 0.0056150444 -0.41169614 -0.08452118
-0.014062528 0.307142 0.03818075 -0.086540654 -0.19902422 -0.22846606 0.5501104 0.05197473
-0.1965121 -0.25343138 0.44661522 0.21673915 -0.25616825 0.22369474 -0.12055456 -0.056240376
-0.36718446 0.39033905 -0.2776998 0.13873746 -0.19213888 -0.1511259 0.5873587 0.21195109
0.30900404 -0.68556 -0.12624092 -0.48368993 -0.22543101 0.29762933 -0.3526978 0.16243121

base.4linear.bias f4 [20]
00000000: 2ca6 683e 5027 88bd f13b 7b3d 89a5 cc3d
00000010: 9b85 adbe 5679 233e ad4d d6be 5cff 87bd
00000020: 1fbb 5abe c840 7d3d a514 14bd 2990 33be
00000030: 0ebf 1abe 62af e13e 349d eb39 5d77 443e
00000040: db69 09bd 9301 c6bd 180e 26be 3436 5bbe
0.2271964 -0.06648123 0.06133646 0.09992511 -0.33890995 0.15964255 -0.41856137 -0.06640503
-0.21360444 0.06182936 -0.0361525 -0.17535461 -0.15111944 0.4407912 0.00044939818 0.19186158
-0.033548217 -0.09668269 -0.16216314 -0.21407396

base.5linear.weight f4 [20, 20]
00000000: 8a50 fe3c 9621 013f 2146 9e3e a60e 4e3f
00000010: 4548 933d 4d08 3bbe 19d5 2abf 9ba0 dcbd
00000020: 6528 74be 6de3 b9be f144 a7be 81ef c2bc
00000030: 2957 b13e 182d 973e bb3d 773f 5a75 d43d
00000040: 7f3d 3f3b 4110 11bf 61c5 973d 1d8f 6abf
00000050: 7119 5f3d 5b2f 5abe 44ba 6f3e f3e9 873f
00000060: 29c6 9abd 2804 0abd dae3 99be da51 553e
00000070: 1dcd 1c3f cc1e db3e 17ae 673e da96 8bbe
00000080: 36b1 1f3f 3df8 e33e 60e8 4cbf 806a 193f
00000090: 4819 c3be 043d d6bd db5a 393f 6ba0 113f
000000a0: 6184 c73e e71e 32be 1f51 173f ace3 a4be
000000b0: 8dda 44bd beb9 9fbe 3d12 d33e 37f8 6cbe
000000c0: 28f1 983e 1f1f 7f3e 99f9 91be 60a0 06bf
000000d0: e0d0 9dbe a079 4c3e fc3e 313d b7fb 043f
000000e0: 8a17 90be baad bcbe 7402 d8be 1b75 83be
000000f0: 7dd8 8b3d 6657 e0bd dd36 abbe 9162 3cbf
00000100: 2580 8a3e 2d57 55bd b4ed 40bd 0c15 52be
00000110: 9be8 bd3c 8e81 5d3e aa6c c0bd 2ee0 9fbe
00000120: b503 f3be 6bb2 85be 919d 803e dab1 333d
00000130: 49a5 7c3e 5818 8e3e 8882 bfbe 7069 9bba
00000140: 4cab b03d f9c6 9c3e af51 163e bd4c 5ebd
00000150: 6183 ecbd b88c bebd 4ef4 933e 2559 033e
00000160: 15fe 0abf 406c 853e 3f2c d6be e54e 063f
00000170: 073e e7bd 2fb3 1b3e c19c 9ebe 142a 953e
00000180: 1072 9abe 766b 64bd 5fef 093f 7d7d 36be
00000190: 0c9e 113f f964 f53d 0c51 90be daea f53d
000001a0: 1674 e33e 4354 87be c859 8c3d 5ce9 f7bc
000001b0: 7ad8 3fbb 0923 97be 6286 a8be 3cf0 f43e
000001c0: 18aa a5bb 5f3d f43d 1980 433e 2f31 5dbe
000001d0: b130 d03e 4ece 6c3e a4e4 983c e499 653f
000001e0: e0ba 5f3d 1d02 1bbe a9b1 21bf a9e0 92be
000001f0: f2c2 cc3e c0f0 93be 9db2 5dbe 21ee d83e
00000200: 16e2 49be 32cf c6bf f117 d5be 546f 96bd
00000210: 1812 31bf 0cf7 cf3e a7ca 3b3e 8063 783f
00000220: 0e3e fc3e 2341 043f a73e 963e f367 8e3f
00000230: c22b 083f 2f70 a8be a2bf 57be 3853 90be
00000240: bd81 78bf 652a 0f3f 7b26 48be 475f 70be
00000250: 734b 853f 9bd7 86be b2a1 65be f09b 77bd
00000260: 414c 1fbf f1f9 823e 4c2b 85bd 9aef ff3e
00000270: 14af c6be ba89 d6be eae1 2f3e 654d 403d
00000280: e43f f1bc b495 643e e923 1ebf 5139 19bf
00000290: 0478 533e db5b 123f 72ba a63e 6807 733e
000002a0: ca58 16be 4e21 3fbe 1446 2b3f 12e2 2cbe
000002b0: 6990 053f bebf bdbe 5725 203e 3ecd 43be
000002c0: bf6e dcbe 5d0e 073e 23a0 b9be 745a eb3e
000002d0: f28b fabe b347 21be fa52 83be 770f 1fbf
000002e0: 8bf8 a4bd 2584 55be 3936 c7be 9d6a b7bd
000002f0: ed12 af3e bec8 33be a339 9bbf bf0d 8ebe
00000300: 6cef 473f 1b8f c23e 1ea9 bfbe 31c8 20be
00000310: e490 abbc 4286 cfbe bf60 55bf a3f9 303e
00000320: 012b f63d 21e9 e6be 8ebe c63d 037b 113f
00000330: 33c1 0dbf 418a 083e 9958 cebe 8f16 203e
00000340: a99a e83d 95c3 823e 76ce 043e 3b60 2d3e
00000350: 144f 12be 31fa b63e e856 9e3e 7cdf 913e
00000360: bdd1 cc3e c2a1 c53e d0ab 0fbf eaad 06be
00000370: 1ca7 e03d 0885 77be 1740 503e 9a24 3e3f
00000380: 94e3 73bf f099 4cbd f333 e2bd 4bd3 e3be
00000390: b9da 323f 5aa1 d03e ffb9 dcbe ba90 4c3f
000003a0: 6b53 16bf 4295 ae3e e9ac 243f b80e 89bf
000003b0: f351 153e c8ed 243f cdd9 14bf f56c 8ebf
000003c0: 10fd fdbe 4844 0c3e c7f7 993e 1364 ecbd
000003d0: 88d9 02bc 5481 ae3e 8ba1 22be c161 2c3f
000003e0: a09c c03e 8289 23be 333a f5be d9b6 ccbd
000003f0: 496c bcbe df80 813e ec3d abbd f037 693e
0.031044263 0.50441873 0.3091288 0.804911 0.07191519 -0.18264885 -0.6673141 -0.107728206
-0.23843534 -0.36306325 -0.32669786 -0.023795845 0.3463681 0.2952659 0.9657857 0.103739455
0.0029180942 -0.56665426 0.07410694 -0.91624624 0.054467622 -0.21307127 0.23410898 1.0618271
-0.07557327 -0.03369537 -0.3005665 0.20832005 0.6125048 0.42796934 0.22625004 -0.27263528
0.6237978 0.44525328 -0.80042076 0.5992813 -0.38105226 -0.104608566 0.7240426 0.56885403
0.38968185 -0.17394601 0.59108156 -0.3220495 -0.04805999 -0.31196398 0.41224852 -0.23141561
0.29871488 0.24914216 -0.2851074 -0.5258846 -0.3082342 0.19968271 0.043272957 0.51946586
-0.2814296 -0.36851293 -0.42189372 -0.25675282 0.06828401 -0.1095417 -0.33440295 -0.735879
0.27050892 -0.05208509 -0.04710169 -0.20515841 0.023182204 0.21631452 -0.09395726 -0.31225723
-0.47463766 -0.26112685 0.25120214 0.043870784 0.24672426 0.27752948 -0.37404275 -0.0011856984
0.08626422 0.30620554 0.14679597 -0.054272402 -0.11548496 -0.09304184 0.28897327 0.12826975
-0.5429395 0.2605915 -0.41830632 0.52464134 -0.11291128 0.15205072 -0.3097897 0.29133666
-0.30165148 -0.055766545 0.53880876 -0.17821307 0.56881785 0.1198215 -0.28186834 0.12007685
0.44424504 -0.26431474 0.06853062 -0.030262642 -0.0029273317 -0.29518917 -0.32915026 0.47839534
-0.005055677 0.11925768 0.19091834 -0.21600793 0.4066215 0.23125574 0.018663712 0.89687943
0.054621577 -0.15137525 -0.6316171 -0.28687027 0.3999248 -0.28894615 -0.21650167 0.42369178
-0.19715151 -1.5531981 -0.41619828 -0.07345453 -0.69168234 0.4061817 0.18339024 0.97026825
0.49266094 0.5166189 0.29344675 1.1125473 0.5319177 -0.3289809 -0.21069196 -0.2818849
-0.97072965 0.55924064 -0.19545929 -0.23473845 1.041365 -0.2633637 -0.22424963 -0.060451448
-0.6222573 0.25581315 -0.06502399 0.4998749 -0.3880545 -0.41901952 0.17176023 0.04694881
-0.02944941 0.22322732 -0.61773545 -0.5985308 0.20651251 0.5717141 0.3256412 0.23733294
-0.14682308 -0.18665048 0.66903806 -0.16883114 0.5217348 -0.3706035 0.15639244 -0.19121262
-0.43053243 0.13189073 -0.36254987 0.45967448 -0.48934895 -0.15750007 -0.25649244 -0.6213297
-0.08055218 -0.2085119 -0.38908556 -0.08955882 0.34194127 -0.17557046 -1.2126964 -0.27744862
0.78099704 0.37999806 -0.37433714 -0.15701367 -0.020943113 -0.40532118 -0.8335075 0.17282729
0.12019921 -0.45099738 0.09704314 0.56828326 -0.55372924 0.1333399 -0.4030197 0.15633605
0.11357624 0.25539842 0.12969384 0.1693124 -0.14287978 0.35737756 0.3092568 0.28490818
0.40003768 0.38599974 -0.5612154 -0.1315228 0.109693736 -0.24171841 0.20336948 0.742746
-0.9526913 -0.049951494 -0.11045065 -0.4449714 0.69864994 0.407481 -0.43110654 0.79908335
-0.58721036 0.3409825 0.6432634 -1.0707617 0.14582042 0.64425325 -0.5814484 -1.1127001
-0.49607134 0.13697922 0.30071852 -0.11542525 -0.007986434 0.34083045 -0.15881936 0.6733666
0.37619495 -0.15970424 -0.47895965 -0.09995813 -0.36801365 0.25293633 -0.0836142 0.22775245

base.5linear.bias f4 [20]
00000000: c540 8a3e 5385 88bc 3ea4 5cbe a878 163d
00000010: 1856 f8be 9100 3f3e 1747 aa3d e745 a13e
00000020: f5b8 6ebe a6b6 8d3d 2253 883e 881e 343e
00000030: 7945 083e f33f 3cbe 5043 16be 2785 b33d
00000040: 77c3 53be 22b1 4ebc 8342 2c3e 18a6 ce3b
0.2700254 -0.016665136 -0.21547028 0.03673616 -0.48503184 0.1865256 0.083143406 0.31498644
-0.23312743 0.06919603 0.26625925 0.17589772 0.13307752 -0.1838377 -0.14674115 0.08765631
-0.20680033 -0.012615474 0.16822247 0.006306421

base.6linear.weight f4 [20, 20]
00000000: c690 353f 919c 0f3e bb07 b23b ad8e 95be
00000010: bdf2 bfbe 6cd2 8ebd 7055 783f fc95 46be
00000020: 84d3 083f aab8 fcbd 18e7 c6be f3ef 01be
00000030: 0833 e2be c8b5 4bbf 947b 233e 4610 dd3d
00000040: fbd2 063f 7c9e e93d e0eb 2cbe e300 f2bd
00000050: 812c 163f d8c9 833e 7ff9 fd3c b4fd 7b3d
00000060: bc7f ff3e 238f 1ebf c880 56bf 7bdd 703e
00000070: eb53 05bf d8c7 84be 4aa9 82be 8199 10be
00000080: a923 07bd 3f3c 02bb 352b be3e 09fa ec3d
00000090: 3ef7 7cbd e144 df3e 2a30 afbe 70e1 853e
000000a0: 2727 8cbf dda2 c0be 0d64 aebd 4e6a cdbd
000000b0: ae1b 24bf a173 ae3f 99ee 493f 90b7 b5bd
000000c0: 31d8 05be 02bb 053f 1b2f 913e 7f3d 0f3f
000000d0: 2c8e 46bd b66d 743e ee79 063e fdbe 21bf
000000e0: 3dd7 2f3f 3488 afbf a682 493f 0449 69bf
000000f0: c655 8d3e 07c0 02bd e0b0 a53c b95f 5ebe
00000100: 5261 29bf 60da 173d 3562 e6bd 03cb d23e
00000110: bc13 34be efe4 803d ddb5 36bc 63d6 61be
00000120: b7c9 1a3e 9e33 c23e 3795 153e 0d1e 483f
00000130: 803c fbbe eddf 7fbe b003 373e 5a45 953e
00000140: f4e2 aa3e 7681 c7bd ef4c 8b3d bbde 213f
00000150: 8be2 043e 5457 a6bd 0956 82be 27ad 053b
00000160: 591d c2be a8f3 4d3d 9ab2 2abf 138f f13e
00000170: a07e b43e 66b8 3bbc 870b cbbd 2ae8 07bf
00000180: 6b41 2e3e bb50 50bd bed0 f53d b68d 6c3d
00000190: 4729 54bf adda 5fbe f9b7 39bf ae20 693e
000001a0: 0553 063e 1405 213f 8bef 1dbf c793 763f
000001b0: 9017 83bf bd46 58bf 3553 50be 66fe 80bd
000001c0: 3266 8e3b 67b3 2abf 14b2 3d3f b270 d43b
000001d0: db59 eebe 6414 973e 6508 abbe f5ac 883e
000001e0: 8e25 c93d d34f 68bb 2862 563e ce67 1b3f
000001f0: b06f 1e3d 6ba6 f3be c153 9c3c 6223 cf3d
00000200: 5b57 e93d 6f44 893e 0fd4 e0be dbec f6bd
00000210: 684d fdbd b7c2 b0be b8c1 ad3e b4aa f3be
00000220: 560a d3be b385 98be 33a9 88be 9d12 0abf
00000230: 9443 1d3e 88d6 2f3e 067d ddbe adc3 b1be
00000240: af31 c83d 7586 09be e96b 03be 066b ca3d
00000250: a9d1 313f 03d1 353e 7631 363f 3dc7 0ebd
00000260: 9fab 66be 3667 b53e fa4c 7b3c c282 61be
00000270: 8840 30bc 7598 863e edbe 1a3d a5da 0fbe
00000280: f6a5 24bf 3f01 5b3f c083 03bf 190b af3e
00000290: d1a8 e53e fb7d 9c3e 11a7 d3be ae8d cbbc
000002a0: 7d30 823e 65ae 753e 7b36 14bf 7ef3 72be
000002b0: 5244 8f3e 6a0b 193f 27f6 a2be c66b 6ebd
000002c0: b0ff b1be e1f4 08bf 09a4 cdbe 9a0e fabc
000002d0: 5901 b83e 124a afbd bd27 9fbe 748d 183e
000002e0: fe0e 4dbe 9082 e5be 55aa ad3e 1a9d 1bbe
000002f0: d29b fcbd 56d2 cebe bf76 29bf 5e15 90bd
00000300: 79df 2cbe 824b 90be 7052 093f 6b02 bebe
00000310: 920a e63d 126c 473e 1369 66be 6894 963d
00000320: 9bbd a5be e159 c0bd 6e3a 51be e663 98bd
00000330: a35f 19bf 5226 1b3f 69e5 dfbe ee76 373f
00000340: 9d53 90be 842e 60be bb87 853d 354b d0be
00000350: dd3e c13e 0763 81be 5503 41be 7e5a 203f
00000360: 2c86 a03d 794d 333d 41cd 71be 89f0 74bd
00000370: 6341 c13d fac5 e53d 2821 d3be f224 4cbe
00000380: d001 4c3e 1ee7 a13e 2c01 f9bd 9e08 3bbe
00000390: 9026 18bf c0ce bbbe 57a0 c13c 51d4 9cbe
000003a0: 263b 843e e86f 72bd 62ad 78bd 2eaa 743e
000003b0: 8bfc 89be d7ad ea3e a4d9 b83e b916 05bf
000003c0: d2cd b1bd e783 34bd 118a 273e 2781 dabe
000003d0: 05ac 88be a843 a03e 1627 22bd 5ea4 1fbe
000003e0: 33bc 53be 6c13 a43d ca5d bc3e 748f e53e
000003f0: faac 8dbe 22c3 41be b5b9 36be 9bb1 26be
0.7092403 0.14024569 0.0054330504 -0.29210415 -0.37489882 -0.069737285 0.9700537 -0.19393152
0.5344775 -0.123399094 -0.38848186 -0.1268919 -0.4417956 -0.7957425 0.1596511 0.107941195
0.5266568 0.114071816 -0.16886854 -0.118165754 0.5866166 0.25739932 0.031002758 0.061521247
0.4990214 -0.6193716 -0.83790255 0.23521988 -0.52081174 -0.2593372 -0.25519782 -0.14121057
-0.032992993 -0.0019872335 0.3714234 0.11571128 -0.061759226 0.43607238 -0.34216434 0.26148558
-1.0949448 -0.37624255 -0.08515177 -0.10030042 -0.64104736 1.3629037 0.78879696 -0.088729024
-0.13070752 0.52238476 0.2835625 0.5595321 -0.04847543 0.23869976 0.1313245 -0.6318205
0.686878 -1.3713441 0.7871498 -0.9112704 0.27604502 -0.031921413 0.020225942 -0.21716203
-0.66164124 0.037073493 -0.112492 0.4117051 -0.17585653 0.062936656 -0.011151758 -0.22054438
0.1511601 0.37930006 0.14607702 0.78170854 -0.49069595 -0.24987765 0.178725 0.29154474
0.33376276 -0.097414896 0.06801783 0.63230485 0.12977044 -0.08122125 -0.25456265 0.0020397396
-0.37913015 0.050281197 -0.66678774 0.4717947 0.35252857 -0.011457538 -0.09914308 -0.5308863
0.17017142 -0.05085824 0.12002705 0.057752334 -0.82875484 -0.21860762 -0.72546345 0.22766373
0.13117607 0.62898374 -0.6169364 0.9631924 -1.0241566 -0.8448294 -0.20344241 -0.06298523
0.0043456787 -0.66679996 0.7409985 0.006483161 -0.4655293 0.29507744 -0.33404842 0.26694456
0.09821616 -0.003544797 0.20935881 0.6070527 0.038680732 -0.47587904 0.019082906 0.101141706
0.11393615 0.26810023 -0.43911788 -0.12056895 -0.1236828 -0.34523556 0.33936858 -0.47591174
-0.41218823 -0.29789504 -0.2669159 -0.5393465 0.1535781 0.17171681 -0.43259448 -0.347196
0.097751014 -0.13430198 -0.12834133 0.09883694 0.6946054 0.17755513 0.7116922 -0.034857977
-0.22526406 0.35430306 0.015338177 -0.22022536 -0.010757573 0.2628819 0.037779737 -0.1404825
-0.64315736 0.85548776 -0.5137291 0.34188154 0.4485536 0.30564865 -0.413384 -0.024847832
0.2542762 0.23992307 -0.5789563 -0.23725697 0.27981812 0.5978304 -0.31828424 -0.05820825
-0.34765387 -0.53498656 -0.4016421 -0.03052454 0.35938528 -0.0855905 -0.31085005 0.1489771
-0.2002525 -0.44826174 0.33919016 -0.15196648 -0.12334408 -0.4039485 -0.6619682 -0.070353255
-0.16882123 -0.28182608 0.53641415 -0.3711122 0.11232485 0.1947482 -0.2250102 0.07352525
-0.3237122 -0.09392143 -0.20432445 -0.07440929 -0.59911555 0.6060535 -0.43729714 0.7166585
-0.28188792 -0.21892744 0.06520029 -0.40682378 0.37743273 -0.25270864 -0.18848927 0.6263808
0.07838091 0.043775056 -0.23613454 -0.059799705 0.094363 0.11219402 -0.41236234 -0.19935969
0.19922566 0.3162164 -0.12158427 -0.18265006 -0.5943384 -0.36681175 0.023636026 -0.30630735
0.25826377 -0.059188753 -0.060712226 0.23893043 -0.26950487 0.45835754 0.36103547 -0.519878
-0.08681835 -0.044071104 0.16361262 -0.4267666 -0.2669374 0.31301618 -0.039588057 -0.15590045
-0.20677261 0.08011517 0.36790305 0.4483601 -0.27671033 -0.18922094 -0.17844279 -0.16278689

base.6linear.bias f4 [20]
00000000: 5602 e7bc 59e4 5f3e 7765 d83d 4aec 003f
00000010: 5827 dabd 0413 d2be b77d 88be 401f a73e
00000020: 2f42 b43e 26cc 4abe c200 ae3e 370e d23d
00000030: 575f 953e a0f8 e03e a2bf f6bc 5082 4a3e
00000040: 1d98 593e ea7e 62be 0d61 a33e 98d3 3ebe
-0.028199356 0.21864451 0.10566228 0.5036055 -0.106520355 -0.41030133 -0.26658413 0.3264103
0.35206744 -0.19804439 0.33984953 0.102566175 0.291743 0.43939686 -0.030120675 0.19776273
0.21249433 -0.22118726 0.3190998 -0.18635404

base.7linear.weight f4 [20, 20]
00000000: a275 8abe c5c2 ffbe d588 d6be 5885 9b3d
00000010: 71bf 153f fb24 18bf e8e6 86be 7df0 853e
00000020: 43c0 a9be c8ac aabe 239a a4bd 702e 0bbf
00000030: 7406 abbe 3c98 9c3d 98c6 43be 045a 8e3e
00000040: 95f2 833c 6ac7 3a3f 7843 26bf 2c7b b3bd
00000050: 8c81 89be 0bf2 5cba 1c56 813e 2788 93be
00000060: da08 4fbe fda7 b3be dd1c 593d 6d9e 303e
00000070: e0b1 1abf 56c5 c7be 2b7e 66be 96a5 523d
00000080: 0169 80be 8c39 a1be 3003 b53e 3396 9bbe
00000090: c8dd 493c 46bf 0d3f fdb8 993e a7c0 6dbd
000000a0: bc1f 143e f2f1 7fbf c317 13be 43dc 4ebf
000000b0: c2b9 8e3e 8032 e33e cde1 0fbe 1fd1 983e
000000c0: 69b0 303e 2d8d c7be 8a19 82bc 3f1c bfbd
000000d0: fbcb ed3e 4790 e2bd 6c85 2b3d 66bf b73d
000000e0: 0e92 c8bd 44a4 2ebe 5f20 323e a946 d1bd
000000f0: 6f07 9bbe 35bc 92bf e2bb 783e 8dc4 843e
00000100: 7b22 b33e 7803 8fbf 4d4f b3bf 292b a7bd
00000110: 8478 b5bf ccf9 f5bc 5b26 083e 9d46 04bf
00000120: e13a d8bd f374 82bf 2979 f63f b7c8 6b3d
00000130: e48d 8ebe 21d5 a4bc 8f78 873f e352 423e
00000140: 918f f1bd dfc5 a9bd f2cd e7be e304 223d
00000150: 69c6 9abe c42a b3bf c816 74be 21be a53f
00000160: 881e 823f 3124 98be c5f1 cbbe 705e 9cbd
00000170: 76d6 183f 33c5 2e3e 785c d63f adbd a03d
00000180: dbcd 443e dd52 82bf b780 273c 949d d8bd
00000190: 928a 3e3c 38ba d8be 4b3b 0fbe 76ef c93e
000001a0: 6a59 d93e cab5 7bbe 697c 393e c8aa 13be
000001b0: 4804 8abf 2632 09bf 215a 8b3e 30ae 00bf
000001c0: 6da1 af3e 6176 1abe f345 923e e0ab a53e
000001d0: 3507 6abe 3ae8 3c3f d715 d03d 506a 12bf
000001e0: d9ab 11bf 35d1 a9be 1921 da3e fa7b aebf
000001f0: d920 d33e 5e48 9b3e 4b8c b9be 9bd3 953e
00000200: 2ab9 173e 8bd5 253e c290 2d3f 31fb d93e
00000210: 0a0a 3a3f 2d8a a8bd 2d6b d1be 3e11 92bd
00000220: 3abb 7f3f da5f debe abe7 8abf 63e0 383e
00000230: 9886 c23e ba41 083e 75d9 21be cf1e ae3d
00000240: 6227 b0bd 4a7f 053f 5ca0 e8bd 6afd 0a3f
00000250: 1065 b6bd 6ccf 6f3e 9b23 0bbe abc6 b13e
00000260: a141 883d 1876 d63d e990 9b3e 79d5 29bf
00000270: e76f 4cbe c95f ebbc 6688 0b3f a89f 783e
00000280: deb4 433f 488e 5c3e 87a2 383e fd60 613f
00000290: d84f 2f3f 765f dfbb 2f73 c6be e242 143f
000002a0: 68e6 e33c 3308 c93c 1e07 5c3d 8b40 2b3e
000002b0: 7ccd 18bf 14b1 d93e 0e7c 2b3e 26f2 9c3e
000002c0: 799b ff3c bb06 65be 8308 ac3d a452 bc3e
000002d0: 766b f0be 9160 f7bd 12bc cabe 7023 3b3e
000002e0: 8ed0 1cbd 392e 003f b245 783f 4426 a23e
000002f0: b3ad 99be f830 213e f7ec 2fbf efc5 fabd
00000300: 7c5f 7d3f 67ed 1abf fa62 babe 3b6e a6be
00000310: dfaf ce3e 3e32 4bbf c2e5 703e 638f 55bf
00000320: d4c1 163f 4053 26bf b0c6 1fbc 57f3 8dbe
00000330: 1953 3bbc c0e9 173e 4012 1d3f 3ac1 043f
00000340: fac4 8e3e d627 fbbe 6c5d 8ebe 65f8 25bf
00000350: ee8a 5fbf 18a0 b7bf f563 c1bf bf21 a3be
00000360: b796 29bf 1e81 81bd 9921 84bf a77a 983e
00000370: 9a9c 75be 4411 f13c 0e1a 973e 92a2 ae3e
00000380: 8217 1f3e 7b90 f6be cef9 9839 37a6 bfbe
00000390: d9a2 a23e ce22 063d 846b 343f 8127 eabe
000003a0: 0e2d 5f3f 5f54 47be c46b 473f 065e 873c
000003b0: a192 153e 4e1e ffbe 9a42 063e 8ae2 933f
000003c0: 4b62 e0bc d131 9fbe e2b3 82be 32fa a4be
000003d0: 525e e7be 143a debc 76f5 28be c4a9 a63e
000003e0: 0b0e 08bf 8361 07be b30c a73d be81 533e
000003f0: 8530 0dbf 3608 adbe f59b 443e 38d5 8fbe
-0.27042872 -0.49953285 -0.4190127 0.07593793 0.5849524 -0.5943143 -0.26348042 0.2616004
-0.33154497 -0.33334947 -0.08037212 -0.54367733 -0.3340336 0.07646224 -0.19118726 0.2780305
0.016106883 0.7296053 -0.649467 -0.087637275 -0.2685665 -0.0008428401 0.2526101 -0.28814813
-0.2021822 -0.35089102 0.05300604 0.17247935 -0.60427666 -0.39017743 -0.22509067 0.051427446
-0.25080112 -0.31489217 0.35353994 -0.3038803 0.012320943 0.55369985 0.30023947 -0.058045056
0.1446523 -0.99978554 -0.14364533 -0.8080484 0.27876097 0.44374466 -0.1405098 0.29847047
0.17254795 -0.38974896 -0.015881319 -0.093315594 0.46444687 -0.11062675 0.041875288 0.08972053
-0.09793483 -0.1705485 0.17395161 -0.102185555 -0.3027911 -1.1463686 0.24290422 0.25931206
0.34987244 -1.1172934 -1.4008576 -0.08162529 -1.4177403 -0.030026339 0.13295881 -0.5167025
-0.10558105 -1.019194 1.9255725 0.057564463 -0.2784263 -0.020121159 1.0583667 0.18976931
-0.11794961 -0.08289694 -0.4527431 0.03955544 -0.302295 -1.3997426 -0.23836815 1.2948648
1.0165567 -0.29715112 -0.39832893 -0.076352 0.5970224 0.17067413 1.6746969 0.07848678
0.19219153 -1.0181538 0.010223559 -0.10576931 0.011629717 -0.42329574 -0.13987462 0.39440507
0.4245103 -0.24581066 0.18113865 -0.14420617 -1.0782557 -0.53592145 0.272172 -0.5026579
0.34302846 -0.1508422 0.28568992 0.32357693 -0.22854312 0.7379185 0.101604156 -0.5719347
-0.56902844 -0.33167425 0.42603377 -1.3631585 0.41235998 0.3032865 -0.36239848 0.29263005
0.14816728 0.16194741 0.6779901 0.42574456 0.7267157 -0.0822948 -0.4090208 -0.07132195
0.9989506 -0.43432504 -1.085195 0.18054347 0.37993312 0.13306323 -0.1580561 0.0850197
-0.08601262 0.5214735 -0.11358711 0.5429293 -0.08905995 0.23418969 -0.13587801 0.34721884
0.06653143 0.10471743 0.30383995 -0.6634136 -0.19964562 -0.028732197 0.54505 0.24279654
0.76447856 0.21538651 0.1803075 0.8803862 0.68481207 -0.0068167998 -0.38759753 0.57914555
0.027819827 0.024540043 0.053717725 0.1672384 -0.59688544 0.42517912 0.16746542 0.30653495
0.031202065 -0.22365849 0.08400061 0.367818 -0.46956986 -0.120789655 -0.3959661 0.18275237
-0.03828483 0.5007053 0.96981347 0.3166982 -0.30015334 0.15741336 -0.68720955 -0.12244784
0.9897382 -0.605185 -0.36403638 -0.32505974 0.40368554 -0.7937354 0.23525146 -0.83421916
0.5888951 -0.6497078 -0.009751961 -0.27724716 -0.011433386 0.14835262 0.6135597 0.5185734
0.27884656 -0.4905383 -0.2780565 -0.64832145 -0.87321365 -1.4345732 -1.510863 -0.31861684
-0.662456 -0.06323455 -1.0322753 0.29781076 -0.2398552 0.029427178 0.29512066 0.34108406
0.15536311 -0.48157105 0.00029177818 -0.374315 0.31764868 0.032748036 0.70476556 -0.45733264
0.87178123 -0.19465779 0.7789881 0.016524326 0.14606716 -0.49827808 0.13111344 1.1553509
-0.02739062 -0.31092694 -0.25527865 -0.32222134 -0.45189148 -0.027127303 -0.16499886 0.32551396
-0.5314643 -0.13220792 0.08156719 0.20654961 -0.5515216 -0.33795327 0.19200118 -0.2809236

base.7linear.bias f4 [20]
00000000: 086a 16be fd8a 8bbe 0aa2 4bbe 818f ec3e
00000010: 55aa 9abd d072 083f a30c efbb 8919 9d3e
00000020: 0e33 cb3e 8ada 7c3e f465 0fbf 45fd 2b3f
00000030: 0831 4a3d 665f 923d 9166 5a3e 282c 30bd
00000040: cd7b fd3e b2c4 69be f961 16bf d294 943e
-0.14688885 -0.27254477 -0.19886032 0.46203235 -0.075520195 0.5330019 -0.0072952076 0.30683544
0.3968739 0.24692741 -0.56014943 0.67183334 0.049363166 0.07147102 0.21328188 -0.04301086
0.49508515 -0.2282894 -0.58743244 0.2901979

base.8linear.weight f4 [2, 20]
00000000: fac7 b1be dc17 473f 43b6 9b3f 84d8 1e3f
00000010: b5ba ab3e dd40 cdbd 610f bfbe b3f8 2d3f
00000020: f31a fdbf 5f33 193e 7714 babe f23e 58be
00000030: 3567 bd3e d7f1 b3be 9259 f13d 456f 113e
00000040: 36cf d83e 7705 4ebf 1e34 b6be e580 8a3e
00000050: 93fe 5f3f 7c49 95be a536 27be e2ba 10be
00000060: af9e cc3f 82f7 0e3f ccf2 b13e 66ab 5a3f
00000070: 7712 c03e 4bf5 953e 1c99 ddbd 1d74 17bf
00000080: f0e4 fd3e de27 3bbe cd73 3c3f aea4 7e3f
00000090: ebfc eabe 48f4 db3e 03c3 e5bf bba0 0bbf
-0.34722883 0.7777078 1.2164997 0.62049127 0.33540884 -0.10022137 -0.3731642 0.6795761
-1.9773849 0.14961003 -0.36343738 -0.21117762 0.36992803 -0.35145447 0.11784662 0.14202602
0.4234559 -0.8047709 -0.35586637 0.27051464 0.87497824 -0.29157627 -0.16329439 -0.1413379
1.5985926 0.55846417 0.34755552 0.85417783 0.37514088 0.29288706 -0.10820219 -0.5916155
0.49588728 -0.18276927 0.736142 0.9947003 -0.45896086 0.4295981 -1.7950138 -0.5454213

base.8linear.bias f4 [2]
00000000: 0000 0000 0000 0000
0.0 0.0
